{"format": "graph-model", "generatedBy": "2.4.1", "convertedBy": "TensorFlow.js Converter v3.6.0", "signature": {"inputs": {"images:0": {"name": "images:0", "dtype": "DT_FLOAT", "tensorShape": {"dim": [{"size": "1"}, {"size": "3"}, {"size": "416"}, {"size": "416"}]}}}, "outputs": {"Identity_1:0": {"name": "Identity_1:0", "dtype": "DT_FLOAT", "tensorShape": {"dim": [{"size": "1"}, {"size": "3"}, {"size": "26"}, {"size": "26"}, {"size": "18"}]}}, "Identity_2:0": {"name": "Identity_2:0", "dtype": "DT_FLOAT", "tensorShape": {"dim": [{"size": "1"}, {"size": "3"}, {"size": "13"}, {"size": "13"}, {"size": "18"}]}}, "Identity_3:0": {"name": "Identity_3:0", "dtype": "DT_FLOAT", "tensorShape": {"dim": [{"size": "1"}, {"size": "10647"}, {"size": "18"}]}}, "Identity:0": {"name": "Identity:0", "dtype": "DT_FLOAT", "tensorShape": {"dim": [{"size": "1"}, {"size": "3"}, {"size": "52"}, {"size": "52"}, {"size": "18"}]}}}}, "modelTopology": {"node": [{"name": "StatefulPartitionedCall/SelectV2_33", "op": "Const", "attr": {"value": {"tensor": {"dtype": "DT_INT64", "tensorShape": {"dim": [{"size": "1"}]}}}, "dtype": {"type": "DT_INT64"}}}, {"name": "StatefulPartitionedCall/zeros_9", "op": "Const", "attr": {"value": {"tensor": {"dtype": "DT_INT64", "tensorShape": {}}}, "dtype": {"type": "DT_INT64"}}}, {"name": "StatefulPartitionedCall/Const_115", "op": "Const", "attr": {"dtype": {"type": "DT_INT64"}, "value": {"tensor": {"dtype": "DT_INT64", "tensorShape": {}}}}}, {"name": "StatefulPartitionedCall/Shape_10", "op": "Const", "attr": {"value": {"tensor": {"dtype": "DT_INT64", "tensorShape": {"dim": [{"size": "5"}]}}}, "dtype": {"type": "DT_INT64"}}}, {"name": "StatefulPartitionedCall/SelectV2_34", "op": "Const", "attr": {"value": {"tensor": {"dtype": "DT_INT64", "tensorShape": {"dim": [{"size": "1"}]}}}, "dtype": {"type": "DT_INT64"}}}, {"name": "StatefulPartitionedCall/Const_114", "op": "Const", "attr": {"value": {"tensor": {"dtype": "DT_INT64", "tensorShape": {}}}, "dtype": {"type": "DT_INT64"}}}, {"name": "StatefulPartitionedCall/ExpandDims_8", "op": "Const", "attr": {"dtype": {"type": "DT_INT64"}, "value": {"tensor": {"dtype": "DT_INT64", "tensorShape": {"dim": [{"size": "1"}, {"size": "1"}]}}}}}, {"name": "StatefulPartitionedCall/Cast_28", "op": "Const", "attr": {"value": {"tensor": {"dtype": "DT_INT64", "tensorShape": {"dim": [{"size": "1"}]}}}, "dtype": {"type": "DT_INT64"}}}, {"name": "StatefulPartitionedCall/onnx_tf_prefix_Constant_273", "op": "Const", "attr": {"dtype": {"type": "DT_INT64"}, "value": {"tensor": {"dtype": "DT_INT64", "tensorShape": {"dim": [{"size": "1"}]}}}}}, {"name": "StatefulPartitionedCall/Const_116", "op": "Const", "attr": {"value": {"tensor": {"dtype": "DT_INT64", "tensorShape": {}}}, "dtype": {"type": "DT_INT64"}}}, {"name": "StatefulPartitionedCall/onnx_tf_prefix_Constant_275", "op": "Const", "attr": {"value": {"tensor": {"dtype": "DT_FLOAT", "tensorShape": {}}}, "dtype": {"type": "DT_FLOAT"}}}, {"name": "StatefulPartitionedCall/onnx_tf_prefix_Sub_278", "op": "Const", "attr": {"value": {"tensor": {"dtype": "DT_FLOAT", "tensorShape": {"dim": [{"size": "1"}, {"size": "1"}, {"size": "52"}, {"size": "52"}, {"size": "2"}]}}}, "dtype": {"type": "DT_FLOAT"}}}, {"name": "StatefulPartitionedCall/onnx_tf_prefix_Constant_281", "op": "Const", "attr": {"value": {"tensor": {"dtype": "DT_FLOAT", "tensorShape": {}}}, "dtype": {"type": "DT_FLOAT"}}}, {"name": "StatefulPartitionedCall/SelectV2_37", "op": "Const", "attr": {"value": {"tensor": {"dtype": "DT_INT64", "tensorShape": {"dim": [{"size": "1"}]}}}, "dtype": {"type": "DT_INT64"}}}, {"name": "StatefulPartitionedCall/zeros_10", "op": "Const", "attr": {"dtype": {"type": "DT_INT64"}, "value": {"tensor": {"dtype": "DT_INT64", "tensorShape": {}}}}}, {"name": "StatefulPartitionedCall/Const_118", "op": "Const", "attr": {"value": {"tensor": {"dtype": "DT_INT64", "tensorShape": {}}}, "dtype": {"type": "DT_INT64"}}}, {"name": "StatefulPartitionedCall/Shape_11", "op": "Const", "attr": {"value": {"tensor": {"dtype": "DT_INT64", "tensorShape": {"dim": [{"size": "5"}]}}}, "dtype": {"type": "DT_INT64"}}}, {"name": "StatefulPartitionedCall/SelectV2_38", "op": "Const", "attr": {"value": {"tensor": {"dtype": "DT_INT64", "tensorShape": {"dim": [{"size": "1"}]}}}, "dtype": {"type": "DT_INT64"}}}, {"name": "StatefulPartitionedCall/Const_117", "op": "Const", "attr": {"value": {"tensor": {"dtype": "DT_INT64", "tensorShape": {}}}, "dtype": {"type": "DT_INT64"}}}, {"name": "StatefulPartitionedCall/ExpandDims_9", "op": "Const", "attr": {"value": {"tensor": {"dtype": "DT_INT64", "tensorShape": {"dim": [{"size": "1"}, {"size": "1"}]}}}, "dtype": {"type": "DT_INT64"}}}, {"name": "StatefulPartitionedCall/Cast_30", "op": "Const", "attr": {"dtype": {"type": "DT_INT64"}, "value": {"tensor": {"dtype": "DT_INT64", "tensorShape": {"dim": [{"size": "1"}]}}}}}, {"name": "StatefulPartitionedCall/onnx_tf_prefix_Constant_286", "op": "Const", "attr": {"value": {"tensor": {"dtype": "DT_INT64", "tensorShape": {"dim": [{"size": "1"}]}}}, "dtype": {"type": "DT_INT64"}}}, {"name": "StatefulPartitionedCall/Const_119", "op": "Const", "attr": {"value": {"tensor": {"dtype": "DT_INT64", "tensorShape": {}}}, "dtype": {"type": "DT_INT64"}}}, {"name": "StatefulPartitionedCall/onnx_tf_prefix_Constant_288", "op": "Const", "attr": {"value": {"tensor": {"dtype": "DT_FLOAT", "tensorShape": {}}}, "dtype": {"type": "DT_FLOAT"}}}, {"name": "unknown_155", "op": "Const", "attr": {"value": {"tensor": {"dtype": "DT_FLOAT", "tensorShape": {"dim": [{"size": "1"}, {"size": "3"}, {"size": "1"}, {"size": "1"}, {"size": "2"}]}}}, "dtype": {"type": "DT_FLOAT"}}}, {"name": "StatefulPartitionedCall/transpose_212/perm", "op": "Const", "attr": {"value": {"tensor": {"dtype": "DT_INT32", "tensorShape": {"dim": [{"size": "4"}]}}}, "dtype": {"type": "DT_INT32"}}}, {"name": "StatefulPartitionedCall/split_67", "op": "Const", "attr": {"value": {"tensor": {"dtype": "DT_FLOAT", "tensorShape": {"dim": [{"size": "1"}, {"size": "1"}, {"size": "128"}, {"size": "54"}]}}}, "dtype": {"type": "DT_FLOAT"}}}, {"name": "unknown_152", "op": "Const", "attr": {"value": {"tensor": {"dtype": "DT_FLOAT", "tensorShape": {"dim": [{"size": "54"}]}}}, "dtype": {"type": "DT_FLOAT"}}}, {"name": "StatefulPartitionedCall/transpose_213/perm", "op": "Const", "attr": {"value": {"tensor": {"dtype": "DT_INT32", "tensorShape": {"dim": [{"size": "4"}]}}}, "dtype": {"type": "DT_INT32"}}}, {"name": "StatefulPartitionedCall/Cast_26", "op": "Const", "attr": {"value": {"tensor": {"dtype": "DT_INT64", "tensorShape": {"dim": [{"size": "1"}]}}}, "dtype": {"type": "DT_INT64"}}}, {"name": "StatefulPartitionedCall/zeros_8", "op": "Const", "attr": {"value": {"tensor": {"dtype": "DT_INT64", "tensorShape": {}}}, "dtype": {"type": "DT_INT64"}}}, {"name": "StatefulPartitionedCall/onnx_tf_prefix_Transpose_268/perm", "op": "Const", "attr": {"value": {"tensor": {"dtype": "DT_INT32", "tensorShape": {"dim": [{"size": "5"}]}}}, "dtype": {"type": "DT_INT32"}}}, {"name": "StatefulPartitionedCall/SelectV2_41", "op": "Const", "attr": {"value": {"tensor": {"dtype": "DT_INT64", "tensorShape": {"dim": [{"size": "1"}]}}}, "dtype": {"type": "DT_INT64"}}}, {"name": "StatefulPartitionedCall/zeros_11", "op": "Const", "attr": {"value": {"tensor": {"dtype": "DT_INT64", "tensorShape": {}}}, "dtype": {"type": "DT_INT64"}}}, {"name": "StatefulPartitionedCall/Const_121", "op": "Const", "attr": {"value": {"tensor": {"dtype": "DT_INT64", "tensorShape": {}}}, "dtype": {"type": "DT_INT64"}}}, {"name": "StatefulPartitionedCall/Shape_12", "op": "Const", "attr": {"dtype": {"type": "DT_INT64"}, "value": {"tensor": {"dtype": "DT_INT64", "tensorShape": {"dim": [{"size": "5"}]}}}}}, {"name": "StatefulPartitionedCall/SelectV2_42", "op": "Const", "attr": {"value": {"tensor": {"dtype": "DT_INT64", "tensorShape": {"dim": [{"size": "1"}]}}}, "dtype": {"type": "DT_INT64"}}}, {"name": "StatefulPartitionedCall/Const_120", "op": "Const", "attr": {"dtype": {"type": "DT_INT64"}, "value": {"tensor": {"dtype": "DT_INT64", "tensorShape": {}}}}}, {"name": "StatefulPartitionedCall/ExpandDims_10", "op": "Const", "attr": {"value": {"tensor": {"dtype": "DT_INT64", "tensorShape": {"dim": [{"size": "1"}, {"size": "1"}]}}}, "dtype": {"type": "DT_INT64"}}}, {"name": "StatefulPartitionedCall/Cast_32", "op": "Const", "attr": {"value": {"tensor": {"dtype": "DT_INT64", "tensorShape": {"dim": [{"size": "1"}]}}}, "dtype": {"type": "DT_INT64"}}}, {"name": "StatefulPartitionedCall/onnx_tf_prefix_Constant_296", "op": "Const", "attr": {"value": {"tensor": {"dtype": "DT_INT64", "tensorShape": {"dim": [{"size": "1"}]}}}, "dtype": {"type": "DT_INT64"}}}, {"name": "StatefulPartitionedCall/Const_122", "op": "Const", "attr": {"value": {"tensor": {"dtype": "DT_INT64", "tensorShape": {}}}, "dtype": {"type": "DT_INT64"}}}, {"name": "StatefulPartitionedCall/onnx_tf_prefix_Concat_298/axis", "op": "Const", "attr": {"dtype": {"type": "DT_INT32"}, "value": {"tensor": {"dtype": "DT_INT32", "tensorShape": {}}}}}, {"name": "StatefulPartitionedCall/Cast_33", "op": "Const", "attr": {"value": {"tensor": {"dtype": "DT_INT64", "tensorShape": {"dim": [{"size": "1"}]}}}, "dtype": {"type": "DT_INT64"}}}, {"name": "Func/StatefulPartitionedCall/assert_equal_1/Assert/AssertGuard/then/_179/output/_273", "op": "Const", "attr": {"value": {"tensor": {"dtype": "DT_BOOL", "tensorShape": {}}}, "dtype": {"type": "DT_BOOL"}}}, {"name": "StatefulPartitionedCall/zeros_12", "op": "Const", "attr": {"value": {"tensor": {"dtype": "DT_INT64", "tensorShape": {}}}, "dtype": {"type": "DT_INT64"}}}, {"name": "StatefulPartitionedCall/SelectV2_45", "op": "Const", "attr": {"value": {"tensor": {"dtype": "DT_INT64", "tensorShape": {"dim": [{"size": "1"}]}}}, "dtype": {"type": "DT_INT64"}}}, {"name": "StatefulPartitionedCall/zeros_14", "op": "Const", "attr": {"value": {"tensor": {"dtype": "DT_INT64", "tensorShape": {}}}, "dtype": {"type": "DT_INT64"}}}, {"name": "StatefulPartitionedCall/Const_127", "op": "Const", "attr": {"value": {"tensor": {"dtype": "DT_INT64", "tensorShape": {}}}, "dtype": {"type": "DT_INT64"}}}, {"name": "StatefulPartitionedCall/Shape_17", "op": "Const", "attr": {"value": {"tensor": {"dtype": "DT_INT64", "tensorShape": {"dim": [{"size": "5"}]}}}, "dtype": {"type": "DT_INT64"}}}, {"name": "StatefulPartitionedCall/SelectV2_46", "op": "Const", "attr": {"dtype": {"type": "DT_INT64"}, "value": {"tensor": {"dtype": "DT_INT64", "tensorShape": {"dim": [{"size": "1"}]}}}}}, {"name": "StatefulPartitionedCall/Const_126", "op": "Const", "attr": {"value": {"tensor": {"dtype": "DT_INT64", "tensorShape": {}}}, "dtype": {"type": "DT_INT64"}}}, {"name": "StatefulPartitionedCall/ExpandDims_11", "op": "Const", "attr": {"value": {"tensor": {"dtype": "DT_INT64", "tensorShape": {"dim": [{"size": "1"}, {"size": "1"}]}}}, "dtype": {"type": "DT_INT64"}}}, {"name": "StatefulPartitionedCall/Cast_42", "op": "Const", "attr": {"value": {"tensor": {"dtype": "DT_INT64", "tensorShape": {"dim": [{"size": "1"}]}}}, "dtype": {"type": "DT_INT64"}}}, {"name": "StatefulPartitionedCall/onnx_tf_prefix_Constant_322", "op": "Const", "attr": {"value": {"tensor": {"dtype": "DT_INT64", "tensorShape": {"dim": [{"size": "1"}]}}}, "dtype": {"type": "DT_INT64"}}}, {"name": "StatefulPartitionedCall/Const_128", "op": "Const", "attr": {"dtype": {"type": "DT_INT64"}, "value": {"tensor": {"dtype": "DT_INT64", "tensorShape": {}}}}}, {"name": "StatefulPartitionedCall/onnx_tf_prefix_Constant_324", "op": "Const", "attr": {"value": {"tensor": {"dtype": "DT_FLOAT", "tensorShape": {}}}, "dtype": {"type": "DT_FLOAT"}}}, {"name": "StatefulPartitionedCall/onnx_tf_prefix_Sub_327", "op": "Const", "attr": {"value": {"tensor": {"dtype": "DT_FLOAT", "tensorShape": {"dim": [{"size": "1"}, {"size": "1"}, {"size": "26"}, {"size": "26"}, {"size": "2"}]}}}, "dtype": {"type": "DT_FLOAT"}}}, {"name": "StatefulPartitionedCall/onnx_tf_prefix_Constant_330", "op": "Const", "attr": {"value": {"tensor": {"dtype": "DT_FLOAT", "tensorShape": {}}}, "dtype": {"type": "DT_FLOAT"}}}, {"name": "StatefulPartitionedCall/SelectV2_49", "op": "Const", "attr": {"value": {"tensor": {"dtype": "DT_INT64", "tensorShape": {"dim": [{"size": "1"}]}}}, "dtype": {"type": "DT_INT64"}}}, {"name": "StatefulPartitionedCall/zeros_15", "op": "Const", "attr": {"value": {"tensor": {"dtype": "DT_INT64", "tensorShape": {}}}, "dtype": {"type": "DT_INT64"}}}, {"name": "StatefulPartitionedCall/Const_130", "op": "Const", "attr": {"value": {"tensor": {"dtype": "DT_INT64", "tensorShape": {}}}, "dtype": {"type": "DT_INT64"}}}, {"name": "StatefulPartitionedCall/Shape_18", "op": "Const", "attr": {"value": {"tensor": {"dtype": "DT_INT64", "tensorShape": {"dim": [{"size": "5"}]}}}, "dtype": {"type": "DT_INT64"}}}, {"name": "StatefulPartitionedCall/SelectV2_50", "op": "Const", "attr": {"value": {"tensor": {"dtype": "DT_INT64", "tensorShape": {"dim": [{"size": "1"}]}}}, "dtype": {"type": "DT_INT64"}}}, {"name": "StatefulPartitionedCall/Const_129", "op": "Const", "attr": {"dtype": {"type": "DT_INT64"}, "value": {"tensor": {"dtype": "DT_INT64", "tensorShape": {}}}}}, {"name": "StatefulPartitionedCall/ExpandDims_12", "op": "Const", "attr": {"value": {"tensor": {"dtype": "DT_INT64", "tensorShape": {"dim": [{"size": "1"}, {"size": "1"}]}}}, "dtype": {"type": "DT_INT64"}}}, {"name": "StatefulPartitionedCall/Cast_44", "op": "Const", "attr": {"value": {"tensor": {"dtype": "DT_INT64", "tensorShape": {"dim": [{"size": "1"}]}}}, "dtype": {"type": "DT_INT64"}}}, {"name": "StatefulPartitionedCall/onnx_tf_prefix_Constant_335", "op": "Const", "attr": {"value": {"tensor": {"dtype": "DT_INT64", "tensorShape": {"dim": [{"size": "1"}]}}}, "dtype": {"type": "DT_INT64"}}}, {"name": "StatefulPartitionedCall/Const_131", "op": "Const", "attr": {"value": {"tensor": {"dtype": "DT_INT64", "tensorShape": {}}}, "dtype": {"type": "DT_INT64"}}}, {"name": "StatefulPartitionedCall/onnx_tf_prefix_Constant_337", "op": "Const", "attr": {"value": {"tensor": {"dtype": "DT_FLOAT", "tensorShape": {}}}, "dtype": {"type": "DT_FLOAT"}}}, {"name": "unknown_162", "op": "Const", "attr": {"value": {"tensor": {"dtype": "DT_FLOAT", "tensorShape": {"dim": [{"size": "1"}, {"size": "3"}, {"size": "1"}, {"size": "1"}, {"size": "2"}]}}}, "dtype": {"type": "DT_FLOAT"}}}, {"name": "StatefulPartitionedCall/transpose_215/perm", "op": "Const", "attr": {"value": {"tensor": {"dtype": "DT_INT32", "tensorShape": {"dim": [{"size": "4"}]}}}, "dtype": {"type": "DT_INT32"}}}, {"name": "StatefulPartitionedCall/split_68", "op": "Const", "attr": {"value": {"tensor": {"dtype": "DT_FLOAT", "tensorShape": {"dim": [{"size": "1"}, {"size": "1"}, {"size": "256"}, {"size": "54"}]}}}, "dtype": {"type": "DT_FLOAT"}}}, {"name": "unknown_159", "op": "Const", "attr": {"value": {"tensor": {"dtype": "DT_FLOAT", "tensorShape": {"dim": [{"size": "54"}]}}}, "dtype": {"type": "DT_FLOAT"}}}, {"name": "StatefulPartitionedCall/transpose_216/perm", "op": "Const", "attr": {"value": {"tensor": {"dtype": "DT_INT32", "tensorShape": {"dim": [{"size": "4"}]}}}, "dtype": {"type": "DT_INT32"}}}, {"name": "StatefulPartitionedCall/Cast_40", "op": "Const", "attr": {"value": {"tensor": {"dtype": "DT_INT64", "tensorShape": {"dim": [{"size": "1"}]}}}, "dtype": {"type": "DT_INT64"}}}, {"name": "StatefulPartitionedCall/zeros_13", "op": "Const", "attr": {"dtype": {"type": "DT_INT64"}, "value": {"tensor": {"dtype": "DT_INT64", "tensorShape": {}}}}}, {"name": "StatefulPartitionedCall/onnx_tf_prefix_Transpose_317/perm", "op": "Const", "attr": {"value": {"tensor": {"dtype": "DT_INT32", "tensorShape": {"dim": [{"size": "5"}]}}}, "dtype": {"type": "DT_INT32"}}}, {"name": "StatefulPartitionedCall/SelectV2_53", "op": "Const", "attr": {"value": {"tensor": {"dtype": "DT_INT64", "tensorShape": {"dim": [{"size": "1"}]}}}, "dtype": {"type": "DT_INT64"}}}, {"name": "StatefulPartitionedCall/zeros_16", "op": "Const", "attr": {"dtype": {"type": "DT_INT64"}, "value": {"tensor": {"dtype": "DT_INT64", "tensorShape": {}}}}}, {"name": "StatefulPartitionedCall/Const_133", "op": "Const", "attr": {"dtype": {"type": "DT_INT64"}, "value": {"tensor": {"dtype": "DT_INT64", "tensorShape": {}}}}}, {"name": "StatefulPartitionedCall/Shape_19", "op": "Const", "attr": {"dtype": {"type": "DT_INT64"}, "value": {"tensor": {"dtype": "DT_INT64", "tensorShape": {"dim": [{"size": "5"}]}}}}}, {"name": "StatefulPartitionedCall/SelectV2_54", "op": "Const", "attr": {"value": {"tensor": {"dtype": "DT_INT64", "tensorShape": {"dim": [{"size": "1"}]}}}, "dtype": {"type": "DT_INT64"}}}, {"name": "StatefulPartitionedCall/Const_132", "op": "Const", "attr": {"value": {"tensor": {"dtype": "DT_INT64", "tensorShape": {}}}, "dtype": {"type": "DT_INT64"}}}, {"name": "StatefulPartitionedCall/ExpandDims_13", "op": "Const", "attr": {"value": {"tensor": {"dtype": "DT_INT64", "tensorShape": {"dim": [{"size": "1"}, {"size": "1"}]}}}, "dtype": {"type": "DT_INT64"}}}, {"name": "StatefulPartitionedCall/Cast_46", "op": "Const", "attr": {"value": {"tensor": {"dtype": "DT_INT64", "tensorShape": {"dim": [{"size": "1"}]}}}, "dtype": {"type": "DT_INT64"}}}, {"name": "StatefulPartitionedCall/onnx_tf_prefix_Constant_345", "op": "Const", "attr": {"value": {"tensor": {"dtype": "DT_INT64", "tensorShape": {"dim": [{"size": "1"}]}}}, "dtype": {"type": "DT_INT64"}}}, {"name": "StatefulPartitionedCall/Const_134", "op": "Const", "attr": {"value": {"tensor": {"dtype": "DT_INT64", "tensorShape": {}}}, "dtype": {"type": "DT_INT64"}}}, {"name": "StatefulPartitionedCall/onnx_tf_prefix_Concat_347/axis", "op": "Const", "attr": {"value": {"tensor": {"dtype": "DT_INT32", "tensorShape": {}}}, "dtype": {"type": "DT_INT32"}}}, {"name": "StatefulPartitionedCall/Cast_47", "op": "Const", "attr": {"value": {"tensor": {"dtype": "DT_INT64", "tensorShape": {"dim": [{"size": "1"}]}}}, "dtype": {"type": "DT_INT64"}}}, {"name": "StatefulPartitionedCall/zeros_17", "op": "Const", "attr": {"value": {"tensor": {"dtype": "DT_INT64", "tensorShape": {}}}, "dtype": {"type": "DT_INT64"}}}, {"name": "StatefulPartitionedCall/SelectV2_57", "op": "Const", "attr": {"value": {"tensor": {"dtype": "DT_INT64", "tensorShape": {"dim": [{"size": "1"}]}}}, "dtype": {"type": "DT_INT64"}}}, {"name": "StatefulPartitionedCall/zeros_19", "op": "Const", "attr": {"value": {"tensor": {"dtype": "DT_INT64", "tensorShape": {}}}, "dtype": {"type": "DT_INT64"}}}, {"name": "StatefulPartitionedCall/Const_139", "op": "Const", "attr": {"value": {"tensor": {"dtype": "DT_INT64", "tensorShape": {}}}, "dtype": {"type": "DT_INT64"}}}, {"name": "StatefulPartitionedCall/Shape_24", "op": "Const", "attr": {"value": {"tensor": {"dtype": "DT_INT64", "tensorShape": {"dim": [{"size": "5"}]}}}, "dtype": {"type": "DT_INT64"}}}, {"name": "StatefulPartitionedCall/SelectV2_58", "op": "Const", "attr": {"value": {"tensor": {"dtype": "DT_INT64", "tensorShape": {"dim": [{"size": "1"}]}}}, "dtype": {"type": "DT_INT64"}}}, {"name": "StatefulPartitionedCall/Const_138", "op": "Const", "attr": {"value": {"tensor": {"dtype": "DT_INT64", "tensorShape": {}}}, "dtype": {"type": "DT_INT64"}}}, {"name": "StatefulPartitionedCall/ExpandDims_14", "op": "Const", "attr": {"value": {"tensor": {"dtype": "DT_INT64", "tensorShape": {"dim": [{"size": "1"}, {"size": "1"}]}}}, "dtype": {"type": "DT_INT64"}}}, {"name": "StatefulPartitionedCall/Cast_56", "op": "Const", "attr": {"value": {"tensor": {"dtype": "DT_INT64", "tensorShape": {"dim": [{"size": "1"}]}}}, "dtype": {"type": "DT_INT64"}}}, {"name": "StatefulPartitionedCall/onnx_tf_prefix_Constant_371", "op": "Const", "attr": {"value": {"tensor": {"dtype": "DT_INT64", "tensorShape": {"dim": [{"size": "1"}]}}}, "dtype": {"type": "DT_INT64"}}}, {"name": "StatefulPartitionedCall/Const_140", "op": "Const", "attr": {"value": {"tensor": {"dtype": "DT_INT64", "tensorShape": {}}}, "dtype": {"type": "DT_INT64"}}}, {"name": "StatefulPartitionedCall/onnx_tf_prefix_Constant_373", "op": "Const", "attr": {"value": {"tensor": {"dtype": "DT_FLOAT", "tensorShape": {}}}, "dtype": {"type": "DT_FLOAT"}}}, {"name": "StatefulPartitionedCall/onnx_tf_prefix_Sub_376", "op": "Const", "attr": {"value": {"tensor": {"dtype": "DT_FLOAT", "tensorShape": {"dim": [{"size": "1"}, {"size": "1"}, {"size": "13"}, {"size": "13"}, {"size": "2"}]}}}, "dtype": {"type": "DT_FLOAT"}}}, {"name": "StatefulPartitionedCall/onnx_tf_prefix_Constant_379", "op": "Const", "attr": {"value": {"tensor": {"dtype": "DT_FLOAT", "tensorShape": {}}}, "dtype": {"type": "DT_FLOAT"}}}, {"name": "StatefulPartitionedCall/SelectV2_61", "op": "Const", "attr": {"value": {"tensor": {"dtype": "DT_INT64", "tensorShape": {"dim": [{"size": "1"}]}}}, "dtype": {"type": "DT_INT64"}}}, {"name": "StatefulPartitionedCall/zeros_20", "op": "Const", "attr": {"value": {"tensor": {"dtype": "DT_INT64", "tensorShape": {}}}, "dtype": {"type": "DT_INT64"}}}, {"name": "StatefulPartitionedCall/Const_142", "op": "Const", "attr": {"dtype": {"type": "DT_INT64"}, "value": {"tensor": {"dtype": "DT_INT64", "tensorShape": {}}}}}, {"name": "StatefulPartitionedCall/Shape_25", "op": "Const", "attr": {"dtype": {"type": "DT_INT64"}, "value": {"tensor": {"dtype": "DT_INT64", "tensorShape": {"dim": [{"size": "5"}]}}}}}, {"name": "StatefulPartitionedCall/SelectV2_62", "op": "Const", "attr": {"value": {"tensor": {"dtype": "DT_INT64", "tensorShape": {"dim": [{"size": "1"}]}}}, "dtype": {"type": "DT_INT64"}}}, {"name": "StatefulPartitionedCall/Const_141", "op": "Const", "attr": {"dtype": {"type": "DT_INT64"}, "value": {"tensor": {"dtype": "DT_INT64", "tensorShape": {}}}}}, {"name": "StatefulPartitionedCall/ExpandDims_15", "op": "Const", "attr": {"value": {"tensor": {"dtype": "DT_INT64", "tensorShape": {"dim": [{"size": "1"}, {"size": "1"}]}}}, "dtype": {"type": "DT_INT64"}}}, {"name": "StatefulPartitionedCall/Cast_58", "op": "Const", "attr": {"value": {"tensor": {"dtype": "DT_INT64", "tensorShape": {"dim": [{"size": "1"}]}}}, "dtype": {"type": "DT_INT64"}}}, {"name": "StatefulPartitionedCall/onnx_tf_prefix_Constant_384", "op": "Const", "attr": {"value": {"tensor": {"dtype": "DT_INT64", "tensorShape": {"dim": [{"size": "1"}]}}}, "dtype": {"type": "DT_INT64"}}}, {"name": "StatefulPartitionedCall/Const_143", "op": "Const", "attr": {"value": {"tensor": {"dtype": "DT_INT64", "tensorShape": {}}}, "dtype": {"type": "DT_INT64"}}}, {"name": "StatefulPartitionedCall/onnx_tf_prefix_Constant_386", "op": "Const", "attr": {"value": {"tensor": {"dtype": "DT_FLOAT", "tensorShape": {}}}, "dtype": {"type": "DT_FLOAT"}}}, {"name": "unknown_169", "op": "Const", "attr": {"value": {"tensor": {"dtype": "DT_FLOAT", "tensorShape": {"dim": [{"size": "1"}, {"size": "3"}, {"size": "1"}, {"size": "1"}, {"size": "2"}]}}}, "dtype": {"type": "DT_FLOAT"}}}, {"name": "StatefulPartitionedCall/transpose_194/perm", "op": "Const", "attr": {"value": {"tensor": {"dtype": "DT_INT32", "tensorShape": {"dim": [{"size": "4"}]}}}, "dtype": {"type": "DT_INT32"}}}, {"name": "StatefulPartitionedCall/split_61", "op": "Const", "attr": {"value": {"tensor": {"dtype": "DT_FLOAT", "tensorShape": {"dim": [{"size": "1"}, {"size": "1"}, {"size": "512"}, {"size": "256"}]}}}, "dtype": {"type": "DT_FLOAT"}}}, {"name": "unknown_138", "op": "Const", "attr": {"value": {"tensor": {"dtype": "DT_FLOAT", "tensorShape": {"dim": [{"size": "256"}]}}}, "dtype": {"type": "DT_FLOAT"}}}, {"name": "StatefulPartitionedCall/transpose_195/perm", "op": "Const", "attr": {"value": {"tensor": {"dtype": "DT_INT32", "tensorShape": {"dim": [{"size": "4"}]}}}, "dtype": {"type": "DT_INT32"}}}, {"name": "StatefulPartitionedCall/transpose_197/perm", "op": "Const", "attr": {"dtype": {"type": "DT_INT32"}, "value": {"tensor": {"dtype": "DT_INT32", "tensorShape": {"dim": [{"size": "4"}]}}}}}, {"name": "StatefulPartitionedCall/split_62", "op": "Const", "attr": {"value": {"tensor": {"dtype": "DT_FLOAT", "tensorShape": {"dim": [{"size": "1"}, {"size": "1"}, {"size": "256"}, {"size": "256"}]}}}, "dtype": {"type": "DT_FLOAT"}}}, {"name": "unknown_140", "op": "Const", "attr": {"value": {"tensor": {"dtype": "DT_FLOAT", "tensorShape": {"dim": [{"size": "256"}]}}}, "dtype": {"type": "DT_FLOAT"}}}, {"name": "StatefulPartitionedCall/transpose_198/perm", "op": "Const", "attr": {"value": {"tensor": {"dtype": "DT_INT32", "tensorShape": {"dim": [{"size": "4"}]}}}, "dtype": {"type": "DT_INT32"}}}, {"name": "StatefulPartitionedCall/Const_107", "op": "Const", "attr": {"value": {"tensor": {"dtype": "DT_INT32", "tensorShape": {"dim": [{"size": "4"}, {"size": "2"}]}}}, "dtype": {"type": "DT_INT32"}}}, {"name": "StatefulPartitionedCall/transpose_200/perm", "op": "Const", "attr": {"value": {"tensor": {"dtype": "DT_INT32", "tensorShape": {"dim": [{"size": "4"}]}}}, "dtype": {"type": "DT_INT32"}}}, {"name": "StatefulPartitionedCall/split_63", "op": "Const", "attr": {"dtype": {"type": "DT_FLOAT"}, "value": {"tensor": {"dtype": "DT_FLOAT", "tensorShape": {"dim": [{"size": "3"}, {"size": "3"}, {"size": "256"}, {"size": "256"}]}}}}}, {"name": "unknown_142", "op": "Const", "attr": {"value": {"tensor": {"dtype": "DT_FLOAT", "tensorShape": {"dim": [{"size": "256"}]}}}, "dtype": {"type": "DT_FLOAT"}}}, {"name": "StatefulPartitionedCall/transpose_201/perm", "op": "Const", "attr": {"value": {"tensor": {"dtype": "DT_INT32", "tensorShape": {"dim": [{"size": "4"}]}}}, "dtype": {"type": "DT_INT32"}}}, {"name": "StatefulPartitionedCall/transpose_203/perm", "op": "Const", "attr": {"value": {"tensor": {"dtype": "DT_INT32", "tensorShape": {"dim": [{"size": "4"}]}}}, "dtype": {"type": "DT_INT32"}}}, {"name": "StatefulPartitionedCall/split_64", "op": "Const", "attr": {"value": {"tensor": {"dtype": "DT_FLOAT", "tensorShape": {"dim": [{"size": "1"}, {"size": "1"}, {"size": "256"}, {"size": "256"}]}}}, "dtype": {"type": "DT_FLOAT"}}}, {"name": "StatefulPartitionedCall/transpose_204/perm", "op": "Const", "attr": {"value": {"tensor": {"dtype": "DT_INT32", "tensorShape": {"dim": [{"size": "4"}]}}}, "dtype": {"type": "DT_INT32"}}}, {"name": "StatefulPartitionedCall/transpose_173/perm", "op": "Const", "attr": {"value": {"tensor": {"dtype": "DT_INT32", "tensorShape": {"dim": [{"size": "4"}]}}}, "dtype": {"type": "DT_INT32"}}}, {"name": "StatefulPartitionedCall/split_54", "op": "Const", "attr": {"value": {"tensor": {"dtype": "DT_FLOAT", "tensorShape": {"dim": [{"size": "1"}, {"size": "1"}, {"size": "256"}, {"size": "128"}]}}}, "dtype": {"type": "DT_FLOAT"}}}, {"name": "unknown_122", "op": "Const", "attr": {"value": {"tensor": {"dtype": "DT_FLOAT", "tensorShape": {"dim": [{"size": "128"}]}}}, "dtype": {"type": "DT_FLOAT"}}}, {"name": "StatefulPartitionedCall/transpose_174/perm", "op": "Const", "attr": {"value": {"tensor": {"dtype": "DT_INT32", "tensorShape": {"dim": [{"size": "4"}]}}}, "dtype": {"type": "DT_INT32"}}}, {"name": "StatefulPartitionedCall/transpose_176/perm", "op": "Const", "attr": {"dtype": {"type": "DT_INT32"}, "value": {"tensor": {"dtype": "DT_INT32", "tensorShape": {"dim": [{"size": "4"}]}}}}}, {"name": "StatefulPartitionedCall/split_55", "op": "Const", "attr": {"value": {"tensor": {"dtype": "DT_FLOAT", "tensorShape": {"dim": [{"size": "1"}, {"size": "1"}, {"size": "128"}, {"size": "128"}]}}}, "dtype": {"type": "DT_FLOAT"}}}, {"name": "unknown_124", "op": "Const", "attr": {"dtype": {"type": "DT_FLOAT"}, "value": {"tensor": {"dtype": "DT_FLOAT", "tensorShape": {"dim": [{"size": "128"}]}}}}}, {"name": "StatefulPartitionedCall/transpose_177/perm", "op": "Const", "attr": {"value": {"tensor": {"dtype": "DT_INT32", "tensorShape": {"dim": [{"size": "4"}]}}}, "dtype": {"type": "DT_INT32"}}}, {"name": "StatefulPartitionedCall/Const_98", "op": "Const", "attr": {"dtype": {"type": "DT_INT32"}, "value": {"tensor": {"dtype": "DT_INT32", "tensorShape": {"dim": [{"size": "4"}, {"size": "2"}]}}}}}, {"name": "StatefulPartitionedCall/transpose_179/perm", "op": "Const", "attr": {"dtype": {"type": "DT_INT32"}, "value": {"tensor": {"dtype": "DT_INT32", "tensorShape": {"dim": [{"size": "4"}]}}}}}, {"name": "StatefulPartitionedCall/split_56", "op": "Const", "attr": {"value": {"tensor": {"dtype": "DT_FLOAT", "tensorShape": {"dim": [{"size": "3"}, {"size": "3"}, {"size": "128"}, {"size": "128"}]}}}, "dtype": {"type": "DT_FLOAT"}}}, {"name": "unknown_126", "op": "Const", "attr": {"value": {"tensor": {"dtype": "DT_FLOAT", "tensorShape": {"dim": [{"size": "128"}]}}}, "dtype": {"type": "DT_FLOAT"}}}, {"name": "StatefulPartitionedCall/transpose_180/perm", "op": "Const", "attr": {"dtype": {"type": "DT_INT32"}, "value": {"tensor": {"dtype": "DT_INT32", "tensorShape": {"dim": [{"size": "4"}]}}}}}, {"name": "StatefulPartitionedCall/transpose_182/perm", "op": "Const", "attr": {"value": {"tensor": {"dtype": "DT_INT32", "tensorShape": {"dim": [{"size": "4"}]}}}, "dtype": {"type": "DT_INT32"}}}, {"name": "StatefulPartitionedCall/split_57", "op": "Const", "attr": {"value": {"tensor": {"dtype": "DT_FLOAT", "tensorShape": {"dim": [{"size": "1"}, {"size": "1"}, {"size": "128"}, {"size": "128"}]}}}, "dtype": {"type": "DT_FLOAT"}}}, {"name": "StatefulPartitionedCall/transpose_183/perm", "op": "Const", "attr": {"value": {"tensor": {"dtype": "DT_INT32", "tensorShape": {"dim": [{"size": "4"}]}}}, "dtype": {"type": "DT_INT32"}}}, {"name": "StatefulPartitionedCall/transpose_152/perm", "op": "Const", "attr": {"value": {"tensor": {"dtype": "DT_INT32", "tensorShape": {"dim": [{"size": "4"}]}}}, "dtype": {"type": "DT_INT32"}}}, {"name": "StatefulPartitionedCall/split_47", "op": "Const", "attr": {"value": {"tensor": {"dtype": "DT_FLOAT", "tensorShape": {"dim": [{"size": "1"}, {"size": "1"}, {"size": "256"}, {"size": "64"}]}}}, "dtype": {"type": "DT_FLOAT"}}}, {"name": "unknown_106", "op": "Const", "attr": {"value": {"tensor": {"dtype": "DT_FLOAT", "tensorShape": {"dim": [{"size": "64"}]}}}, "dtype": {"type": "DT_FLOAT"}}}, {"name": "StatefulPartitionedCall/transpose_153/perm", "op": "Const", "attr": {"value": {"tensor": {"dtype": "DT_INT32", "tensorShape": {"dim": [{"size": "4"}]}}}, "dtype": {"type": "DT_INT32"}}}, {"name": "StatefulPartitionedCall/transpose_155/perm", "op": "Const", "attr": {"value": {"tensor": {"dtype": "DT_INT32", "tensorShape": {"dim": [{"size": "4"}]}}}, "dtype": {"type": "DT_INT32"}}}, {"name": "StatefulPartitionedCall/split_48", "op": "Const", "attr": {"value": {"tensor": {"dtype": "DT_FLOAT", "tensorShape": {"dim": [{"size": "1"}, {"size": "1"}, {"size": "64"}, {"size": "64"}]}}}, "dtype": {"type": "DT_FLOAT"}}}, {"name": "unknown_108", "op": "Const", "attr": {"dtype": {"type": "DT_FLOAT"}, "value": {"tensor": {"dtype": "DT_FLOAT", "tensorShape": {"dim": [{"size": "64"}]}}}}}, {"name": "StatefulPartitionedCall/transpose_156/perm", "op": "Const", "attr": {"dtype": {"type": "DT_INT32"}, "value": {"tensor": {"dtype": "DT_INT32", "tensorShape": {"dim": [{"size": "4"}]}}}}}, {"name": "StatefulPartitionedCall/Const_89", "op": "Const", "attr": {"value": {"tensor": {"dtype": "DT_INT32", "tensorShape": {"dim": [{"size": "4"}, {"size": "2"}]}}}, "dtype": {"type": "DT_INT32"}}}, {"name": "StatefulPartitionedCall/transpose_158/perm", "op": "Const", "attr": {"value": {"tensor": {"dtype": "DT_INT32", "tensorShape": {"dim": [{"size": "4"}]}}}, "dtype": {"type": "DT_INT32"}}}, {"name": "StatefulPartitionedCall/split_49", "op": "Const", "attr": {"value": {"tensor": {"dtype": "DT_FLOAT", "tensorShape": {"dim": [{"size": "3"}, {"size": "3"}, {"size": "64"}, {"size": "64"}]}}}, "dtype": {"type": "DT_FLOAT"}}}, {"name": "unknown_110", "op": "Const", "attr": {"value": {"tensor": {"dtype": "DT_FLOAT", "tensorShape": {"dim": [{"size": "64"}]}}}, "dtype": {"type": "DT_FLOAT"}}}, {"name": "StatefulPartitionedCall/transpose_159/perm", "op": "Const", "attr": {"value": {"tensor": {"dtype": "DT_INT32", "tensorShape": {"dim": [{"size": "4"}]}}}, "dtype": {"type": "DT_INT32"}}}, {"name": "StatefulPartitionedCall/transpose_161/perm", "op": "Const", "attr": {"value": {"tensor": {"dtype": "DT_INT32", "tensorShape": {"dim": [{"size": "4"}]}}}, "dtype": {"type": "DT_INT32"}}}, {"name": "StatefulPartitionedCall/split_50", "op": "Const", "attr": {"value": {"tensor": {"dtype": "DT_FLOAT", "tensorShape": {"dim": [{"size": "1"}, {"size": "1"}, {"size": "64"}, {"size": "64"}]}}}, "dtype": {"type": "DT_FLOAT"}}}, {"name": "StatefulPartitionedCall/transpose_162/perm", "op": "Const", "attr": {"value": {"tensor": {"dtype": "DT_INT32", "tensorShape": {"dim": [{"size": "4"}]}}}, "dtype": {"type": "DT_INT32"}}}, {"name": "StatefulPartitionedCall/transpose_149/perm", "op": "Const", "attr": {"value": {"tensor": {"dtype": "DT_INT32", "tensorShape": {"dim": [{"size": "4"}]}}}, "dtype": {"type": "DT_INT32"}}}, {"name": "StatefulPartitionedCall/Cast_19", "op": "Const", "attr": {"value": {"tensor": {"dtype": "DT_INT32", "tensorShape": {"dim": [{"size": "2"}]}}}, "dtype": {"type": "DT_INT32"}}}, {"name": "StatefulPartitionedCall/transpose_150/perm", "op": "Const", "attr": {"value": {"tensor": {"dtype": "DT_INT32", "tensorShape": {"dim": [{"size": "4"}]}}}, "dtype": {"type": "DT_INT32"}}}, {"name": "StatefulPartitionedCall/onnx_tf_prefix_Concat_193/axis", "op": "Const", "attr": {"value": {"tensor": {"dtype": "DT_INT32", "tensorShape": {}}}, "dtype": {"type": "DT_INT32"}}}, {"name": "StatefulPartitionedCall/transpose_164/perm", "op": "Const", "attr": {"value": {"tensor": {"dtype": "DT_INT32", "tensorShape": {"dim": [{"size": "4"}]}}}, "dtype": {"type": "DT_INT32"}}}, {"name": "StatefulPartitionedCall/split_51", "op": "Const", "attr": {"value": {"tensor": {"dtype": "DT_FLOAT", "tensorShape": {"dim": [{"size": "1"}, {"size": "1"}, {"size": "256"}, {"size": "64"}]}}}, "dtype": {"type": "DT_FLOAT"}}}, {"name": "StatefulPartitionedCall/transpose_165/perm", "op": "Const", "attr": {"value": {"tensor": {"dtype": "DT_INT32", "tensorShape": {"dim": [{"size": "4"}]}}}, "dtype": {"type": "DT_INT32"}}}, {"name": "StatefulPartitionedCall/onnx_tf_prefix_Concat_205/axis", "op": "Const", "attr": {"value": {"tensor": {"dtype": "DT_INT32", "tensorShape": {}}}, "dtype": {"type": "DT_INT32"}}}, {"name": "StatefulPartitionedCall/onnx_tf_prefix_BatchNormalization_206/mul", "op": "Const", "attr": {"value": {"tensor": {"dtype": "DT_FLOAT", "tensorShape": {"dim": [{"size": "1"}, {"size": "128"}, {"size": "1"}, {"size": "1"}]}}}, "dtype": {"type": "DT_FLOAT"}}}, {"name": "StatefulPartitionedCall/onnx_tf_prefix_BatchNormalization_206/sub", "op": "Const", "attr": {"value": {"tensor": {"dtype": "DT_FLOAT", "tensorShape": {"dim": [{"size": "1"}, {"size": "128"}, {"size": "1"}, {"size": "1"}]}}}, "dtype": {"type": "DT_FLOAT"}}}, {"name": "StatefulPartitionedCall/transpose_167/perm", "op": "Const", "attr": {"value": {"tensor": {"dtype": "DT_INT32", "tensorShape": {"dim": [{"size": "4"}]}}}, "dtype": {"type": "DT_INT32"}}}, {"name": "StatefulPartitionedCall/split_52", "op": "Const", "attr": {"value": {"tensor": {"dtype": "DT_FLOAT", "tensorShape": {"dim": [{"size": "1"}, {"size": "1"}, {"size": "128"}, {"size": "128"}]}}}, "dtype": {"type": "DT_FLOAT"}}}, {"name": "unknown_118", "op": "Const", "attr": {"dtype": {"type": "DT_FLOAT"}, "value": {"tensor": {"dtype": "DT_FLOAT", "tensorShape": {"dim": [{"size": "128"}]}}}}}, {"name": "StatefulPartitionedCall/transpose_168/perm", "op": "Const", "attr": {"value": {"tensor": {"dtype": "DT_INT32", "tensorShape": {"dim": [{"size": "4"}]}}}, "dtype": {"type": "DT_INT32"}}}, {"name": "StatefulPartitionedCall/Const_94", "op": "Const", "attr": {"dtype": {"type": "DT_INT32"}, "value": {"tensor": {"dtype": "DT_INT32", "tensorShape": {"dim": [{"size": "4"}, {"size": "2"}]}}}}}, {"name": "StatefulPartitionedCall/transpose_170/perm", "op": "Const", "attr": {"value": {"tensor": {"dtype": "DT_INT32", "tensorShape": {"dim": [{"size": "4"}]}}}, "dtype": {"type": "DT_INT32"}}}, {"name": "StatefulPartitionedCall/split_53", "op": "Const", "attr": {"value": {"tensor": {"dtype": "DT_FLOAT", "tensorShape": {"dim": [{"size": "3"}, {"size": "3"}, {"size": "128"}, {"size": "128"}]}}}, "dtype": {"type": "DT_FLOAT"}}}, {"name": "unknown_120", "op": "Const", "attr": {"value": {"tensor": {"dtype": "DT_FLOAT", "tensorShape": {"dim": [{"size": "128"}]}}}, "dtype": {"type": "DT_FLOAT"}}}, {"name": "StatefulPartitionedCall/transpose_171/perm", "op": "Const", "attr": {"dtype": {"type": "DT_INT32"}, "value": {"tensor": {"dtype": "DT_INT32", "tensorShape": {"dim": [{"size": "4"}]}}}}}, {"name": "StatefulPartitionedCall/transpose_129/perm", "op": "Const", "attr": {"value": {"tensor": {"dtype": "DT_INT32", "tensorShape": {"dim": [{"size": "4"}]}}}, "dtype": {"type": "DT_INT32"}}}, {"name": "StatefulPartitionedCall/split_40", "op": "Const", "attr": {"value": {"tensor": {"dtype": "DT_FLOAT", "tensorShape": {"dim": [{"size": "1"}, {"size": "1"}, {"size": "512"}, {"size": "128"}]}}}, "dtype": {"type": "DT_FLOAT"}}}, {"name": "unknown_89", "op": "Const", "attr": {"value": {"tensor": {"dtype": "DT_FLOAT", "tensorShape": {"dim": [{"size": "128"}]}}}, "dtype": {"type": "DT_FLOAT"}}}, {"name": "StatefulPartitionedCall/transpose_130/perm", "op": "Const", "attr": {"value": {"tensor": {"dtype": "DT_INT32", "tensorShape": {"dim": [{"size": "4"}]}}}, "dtype": {"type": "DT_INT32"}}}, {"name": "StatefulPartitionedCall/transpose_132/perm", "op": "Const", "attr": {"value": {"tensor": {"dtype": "DT_INT32", "tensorShape": {"dim": [{"size": "4"}]}}}, "dtype": {"type": "DT_INT32"}}}, {"name": "StatefulPartitionedCall/split_41", "op": "Const", "attr": {"value": {"tensor": {"dtype": "DT_FLOAT", "tensorShape": {"dim": [{"size": "1"}, {"size": "1"}, {"size": "128"}, {"size": "128"}]}}}, "dtype": {"type": "DT_FLOAT"}}}, {"name": "unknown_91", "op": "Const", "attr": {"value": {"tensor": {"dtype": "DT_FLOAT", "tensorShape": {"dim": [{"size": "128"}]}}}, "dtype": {"type": "DT_FLOAT"}}}, {"name": "StatefulPartitionedCall/transpose_133/perm", "op": "Const", "attr": {"dtype": {"type": "DT_INT32"}, "value": {"tensor": {"dtype": "DT_INT32", "tensorShape": {"dim": [{"size": "4"}]}}}}}, {"name": "StatefulPartitionedCall/Const_80", "op": "Const", "attr": {"value": {"tensor": {"dtype": "DT_INT32", "tensorShape": {"dim": [{"size": "4"}, {"size": "2"}]}}}, "dtype": {"type": "DT_INT32"}}}, {"name": "StatefulPartitionedCall/transpose_135/perm", "op": "Const", "attr": {"value": {"tensor": {"dtype": "DT_INT32", "tensorShape": {"dim": [{"size": "4"}]}}}, "dtype": {"type": "DT_INT32"}}}, {"name": "StatefulPartitionedCall/split_42", "op": "Const", "attr": {"value": {"tensor": {"dtype": "DT_FLOAT", "tensorShape": {"dim": [{"size": "3"}, {"size": "3"}, {"size": "128"}, {"size": "128"}]}}}, "dtype": {"type": "DT_FLOAT"}}}, {"name": "unknown_93", "op": "Const", "attr": {"value": {"tensor": {"dtype": "DT_FLOAT", "tensorShape": {"dim": [{"size": "128"}]}}}, "dtype": {"type": "DT_FLOAT"}}}, {"name": "StatefulPartitionedCall/transpose_136/perm", "op": "Const", "attr": {"value": {"tensor": {"dtype": "DT_INT32", "tensorShape": {"dim": [{"size": "4"}]}}}, "dtype": {"type": "DT_INT32"}}}, {"name": "StatefulPartitionedCall/transpose_138/perm", "op": "Const", "attr": {"dtype": {"type": "DT_INT32"}, "value": {"tensor": {"dtype": "DT_INT32", "tensorShape": {"dim": [{"size": "4"}]}}}}}, {"name": "StatefulPartitionedCall/split_43", "op": "Const", "attr": {"value": {"tensor": {"dtype": "DT_FLOAT", "tensorShape": {"dim": [{"size": "1"}, {"size": "1"}, {"size": "128"}, {"size": "128"}]}}}, "dtype": {"type": "DT_FLOAT"}}}, {"name": "StatefulPartitionedCall/transpose_139/perm", "op": "Const", "attr": {"value": {"tensor": {"dtype": "DT_INT32", "tensorShape": {"dim": [{"size": "4"}]}}}, "dtype": {"type": "DT_INT32"}}}, {"name": "StatefulPartitionedCall/transpose_126/perm", "op": "Const", "attr": {"value": {"tensor": {"dtype": "DT_INT32", "tensorShape": {"dim": [{"size": "4"}]}}}, "dtype": {"type": "DT_INT32"}}}, {"name": "StatefulPartitionedCall/Cast_17", "op": "Const", "attr": {"value": {"tensor": {"dtype": "DT_INT32", "tensorShape": {"dim": [{"size": "2"}]}}}, "dtype": {"type": "DT_INT32"}}}, {"name": "StatefulPartitionedCall/transpose_127/perm", "op": "Const", "attr": {"value": {"tensor": {"dtype": "DT_INT32", "tensorShape": {"dim": [{"size": "4"}]}}}, "dtype": {"type": "DT_INT32"}}}, {"name": "StatefulPartitionedCall/onnx_tf_prefix_Concat_170/axis", "op": "Const", "attr": {"value": {"tensor": {"dtype": "DT_INT32", "tensorShape": {}}}, "dtype": {"type": "DT_INT32"}}}, {"name": "StatefulPartitionedCall/transpose_141/perm", "op": "Const", "attr": {"value": {"tensor": {"dtype": "DT_INT32", "tensorShape": {"dim": [{"size": "4"}]}}}, "dtype": {"type": "DT_INT32"}}}, {"name": "StatefulPartitionedCall/split_44", "op": "Const", "attr": {"value": {"tensor": {"dtype": "DT_FLOAT", "tensorShape": {"dim": [{"size": "1"}, {"size": "1"}, {"size": "512"}, {"size": "128"}]}}}, "dtype": {"type": "DT_FLOAT"}}}, {"name": "StatefulPartitionedCall/transpose_142/perm", "op": "Const", "attr": {"value": {"tensor": {"dtype": "DT_INT32", "tensorShape": {"dim": [{"size": "4"}]}}}, "dtype": {"type": "DT_INT32"}}}, {"name": "StatefulPartitionedCall/onnx_tf_prefix_Concat_182/axis", "op": "Const", "attr": {"value": {"tensor": {"dtype": "DT_INT32", "tensorShape": {}}}, "dtype": {"type": "DT_INT32"}}}, {"name": "StatefulPartitionedCall/onnx_tf_prefix_BatchNormalization_183/mul", "op": "Const", "attr": {"value": {"tensor": {"dtype": "DT_FLOAT", "tensorShape": {"dim": [{"size": "1"}, {"size": "256"}, {"size": "1"}, {"size": "1"}]}}}, "dtype": {"type": "DT_FLOAT"}}}, {"name": "StatefulPartitionedCall/onnx_tf_prefix_BatchNormalization_183/sub", "op": "Const", "attr": {"value": {"tensor": {"dtype": "DT_FLOAT", "tensorShape": {"dim": [{"size": "1"}, {"size": "256"}, {"size": "1"}, {"size": "1"}]}}}, "dtype": {"type": "DT_FLOAT"}}}, {"name": "StatefulPartitionedCall/transpose_144/perm", "op": "Const", "attr": {"value": {"tensor": {"dtype": "DT_INT32", "tensorShape": {"dim": [{"size": "4"}]}}}, "dtype": {"type": "DT_INT32"}}}, {"name": "StatefulPartitionedCall/split_45", "op": "Const", "attr": {"dtype": {"type": "DT_FLOAT"}, "value": {"tensor": {"dtype": "DT_FLOAT", "tensorShape": {"dim": [{"size": "1"}, {"size": "1"}, {"size": "256"}, {"size": "256"}]}}}}}, {"name": "unknown_101", "op": "Const", "attr": {"value": {"tensor": {"dtype": "DT_FLOAT", "tensorShape": {"dim": [{"size": "256"}]}}}, "dtype": {"type": "DT_FLOAT"}}}, {"name": "StatefulPartitionedCall/transpose_145/perm", "op": "Const", "attr": {"dtype": {"type": "DT_INT32"}, "value": {"tensor": {"dtype": "DT_INT32", "tensorShape": {"dim": [{"size": "4"}]}}}}}, {"name": "StatefulPartitionedCall/transpose_147/perm", "op": "Const", "attr": {"value": {"tensor": {"dtype": "DT_INT32", "tensorShape": {"dim": [{"size": "4"}]}}}, "dtype": {"type": "DT_INT32"}}}, {"name": "StatefulPartitionedCall/split_46", "op": "Const", "attr": {"value": {"tensor": {"dtype": "DT_FLOAT", "tensorShape": {"dim": [{"size": "1"}, {"size": "1"}, {"size": "256"}, {"size": "128"}]}}}, "dtype": {"type": "DT_FLOAT"}}}, {"name": "unknown_103", "op": "Const", "attr": {"dtype": {"type": "DT_FLOAT"}, "value": {"tensor": {"dtype": "DT_FLOAT", "tensorShape": {"dim": [{"size": "128"}]}}}}}, {"name": "StatefulPartitionedCall/transpose_148/perm", "op": "Const", "attr": {"value": {"tensor": {"dtype": "DT_INT32", "tensorShape": {"dim": [{"size": "4"}]}}}, "dtype": {"type": "DT_INT32"}}}, {"name": "StatefulPartitionedCall/onnx_tf_prefix_Concat_214/axis", "op": "Const", "attr": {"value": {"tensor": {"dtype": "DT_INT32", "tensorShape": {}}}, "dtype": {"type": "DT_INT32"}}}, {"name": "StatefulPartitionedCall/transpose_185/perm", "op": "Const", "attr": {"value": {"tensor": {"dtype": "DT_INT32", "tensorShape": {"dim": [{"size": "4"}]}}}, "dtype": {"type": "DT_INT32"}}}, {"name": "StatefulPartitionedCall/split_58", "op": "Const", "attr": {"value": {"tensor": {"dtype": "DT_FLOAT", "tensorShape": {"dim": [{"size": "1"}, {"size": "1"}, {"size": "256"}, {"size": "128"}]}}}, "dtype": {"type": "DT_FLOAT"}}}, {"name": "StatefulPartitionedCall/transpose_186/perm", "op": "Const", "attr": {"value": {"tensor": {"dtype": "DT_INT32", "tensorShape": {"dim": [{"size": "4"}]}}}, "dtype": {"type": "DT_INT32"}}}, {"name": "StatefulPartitionedCall/onnx_tf_prefix_Concat_226/axis", "op": "Const", "attr": {"value": {"tensor": {"dtype": "DT_INT32", "tensorShape": {}}}, "dtype": {"type": "DT_INT32"}}}, {"name": "StatefulPartitionedCall/onnx_tf_prefix_BatchNormalization_227/mul", "op": "Const", "attr": {"dtype": {"type": "DT_FLOAT"}, "value": {"tensor": {"dtype": "DT_FLOAT", "tensorShape": {"dim": [{"size": "1"}, {"size": "256"}, {"size": "1"}, {"size": "1"}]}}}}}, {"name": "StatefulPartitionedCall/onnx_tf_prefix_BatchNormalization_227/sub", "op": "Const", "attr": {"value": {"tensor": {"dtype": "DT_FLOAT", "tensorShape": {"dim": [{"size": "1"}, {"size": "256"}, {"size": "1"}, {"size": "1"}]}}}, "dtype": {"type": "DT_FLOAT"}}}, {"name": "StatefulPartitionedCall/transpose_188/perm", "op": "Const", "attr": {"value": {"tensor": {"dtype": "DT_INT32", "tensorShape": {"dim": [{"size": "4"}]}}}, "dtype": {"type": "DT_INT32"}}}, {"name": "StatefulPartitionedCall/split_59", "op": "Const", "attr": {"value": {"tensor": {"dtype": "DT_FLOAT", "tensorShape": {"dim": [{"size": "1"}, {"size": "1"}, {"size": "256"}, {"size": "256"}]}}}, "dtype": {"type": "DT_FLOAT"}}}, {"name": "unknown_134", "op": "Const", "attr": {"dtype": {"type": "DT_FLOAT"}, "value": {"tensor": {"dtype": "DT_FLOAT", "tensorShape": {"dim": [{"size": "256"}]}}}}}, {"name": "StatefulPartitionedCall/transpose_189/perm", "op": "Const", "attr": {"value": {"tensor": {"dtype": "DT_INT32", "tensorShape": {"dim": [{"size": "4"}]}}}, "dtype": {"type": "DT_INT32"}}}, {"name": "StatefulPartitionedCall/Const_103", "op": "Const", "attr": {"value": {"tensor": {"dtype": "DT_INT32", "tensorShape": {"dim": [{"size": "4"}, {"size": "2"}]}}}, "dtype": {"type": "DT_INT32"}}}, {"name": "StatefulPartitionedCall/transpose_191/perm", "op": "Const", "attr": {"value": {"tensor": {"dtype": "DT_INT32", "tensorShape": {"dim": [{"size": "4"}]}}}, "dtype": {"type": "DT_INT32"}}}, {"name": "StatefulPartitionedCall/split_60", "op": "Const", "attr": {"value": {"tensor": {"dtype": "DT_FLOAT", "tensorShape": {"dim": [{"size": "3"}, {"size": "3"}, {"size": "256"}, {"size": "256"}]}}}, "dtype": {"type": "DT_FLOAT"}}}, {"name": "unknown_136", "op": "Const", "attr": {"value": {"tensor": {"dtype": "DT_FLOAT", "tensorShape": {"dim": [{"size": "256"}]}}}, "dtype": {"type": "DT_FLOAT"}}}, {"name": "StatefulPartitionedCall/transpose_192/perm", "op": "Const", "attr": {"value": {"tensor": {"dtype": "DT_INT32", "tensorShape": {"dim": [{"size": "4"}]}}}, "dtype": {"type": "DT_INT32"}}}, {"name": "StatefulPartitionedCall/transpose_106/perm", "op": "Const", "attr": {"value": {"tensor": {"dtype": "DT_INT32", "tensorShape": {"dim": [{"size": "4"}]}}}, "dtype": {"type": "DT_INT32"}}}, {"name": "StatefulPartitionedCall/split_33", "op": "Const", "attr": {"dtype": {"type": "DT_FLOAT"}, "value": {"tensor": {"dtype": "DT_FLOAT", "tensorShape": {"dim": [{"size": "1"}, {"size": "1"}, {"size": "512"}, {"size": "256"}]}}}}}, {"name": "unknown_72", "op": "Const", "attr": {"value": {"tensor": {"dtype": "DT_FLOAT", "tensorShape": {"dim": [{"size": "256"}]}}}, "dtype": {"type": "DT_FLOAT"}}}, {"name": "StatefulPartitionedCall/transpose_107/perm", "op": "Const", "attr": {"value": {"tensor": {"dtype": "DT_INT32", "tensorShape": {"dim": [{"size": "4"}]}}}, "dtype": {"type": "DT_INT32"}}}, {"name": "StatefulPartitionedCall/transpose_109/perm", "op": "Const", "attr": {"value": {"tensor": {"dtype": "DT_INT32", "tensorShape": {"dim": [{"size": "4"}]}}}, "dtype": {"type": "DT_INT32"}}}, {"name": "StatefulPartitionedCall/split_34", "op": "Const", "attr": {"value": {"tensor": {"dtype": "DT_FLOAT", "tensorShape": {"dim": [{"size": "1"}, {"size": "1"}, {"size": "256"}, {"size": "256"}]}}}, "dtype": {"type": "DT_FLOAT"}}}, {"name": "unknown_74", "op": "Const", "attr": {"value": {"tensor": {"dtype": "DT_FLOAT", "tensorShape": {"dim": [{"size": "256"}]}}}, "dtype": {"type": "DT_FLOAT"}}}, {"name": "StatefulPartitionedCall/transpose_110/perm", "op": "Const", "attr": {"value": {"tensor": {"dtype": "DT_INT32", "tensorShape": {"dim": [{"size": "4"}]}}}, "dtype": {"type": "DT_INT32"}}}, {"name": "StatefulPartitionedCall/Const_71", "op": "Const", "attr": {"value": {"tensor": {"dtype": "DT_INT32", "tensorShape": {"dim": [{"size": "4"}, {"size": "2"}]}}}, "dtype": {"type": "DT_INT32"}}}, {"name": "StatefulPartitionedCall/transpose_112/perm", "op": "Const", "attr": {"value": {"tensor": {"dtype": "DT_INT32", "tensorShape": {"dim": [{"size": "4"}]}}}, "dtype": {"type": "DT_INT32"}}}, {"name": "StatefulPartitionedCall/split_35", "op": "Const", "attr": {"value": {"tensor": {"dtype": "DT_FLOAT", "tensorShape": {"dim": [{"size": "3"}, {"size": "3"}, {"size": "256"}, {"size": "256"}]}}}, "dtype": {"type": "DT_FLOAT"}}}, {"name": "unknown_76", "op": "Const", "attr": {"value": {"tensor": {"dtype": "DT_FLOAT", "tensorShape": {"dim": [{"size": "256"}]}}}, "dtype": {"type": "DT_FLOAT"}}}, {"name": "StatefulPartitionedCall/transpose_113/perm", "op": "Const", "attr": {"value": {"tensor": {"dtype": "DT_INT32", "tensorShape": {"dim": [{"size": "4"}]}}}, "dtype": {"type": "DT_INT32"}}}, {"name": "StatefulPartitionedCall/transpose_115/perm", "op": "Const", "attr": {"value": {"tensor": {"dtype": "DT_INT32", "tensorShape": {"dim": [{"size": "4"}]}}}, "dtype": {"type": "DT_INT32"}}}, {"name": "StatefulPartitionedCall/split_36", "op": "Const", "attr": {"dtype": {"type": "DT_FLOAT"}, "value": {"tensor": {"dtype": "DT_FLOAT", "tensorShape": {"dim": [{"size": "1"}, {"size": "1"}, {"size": "256"}, {"size": "256"}]}}}}}, {"name": "StatefulPartitionedCall/transpose_116/perm", "op": "Const", "attr": {"value": {"tensor": {"dtype": "DT_INT32", "tensorShape": {"dim": [{"size": "4"}]}}}, "dtype": {"type": "DT_INT32"}}}, {"name": "StatefulPartitionedCall/transpose_96/perm", "op": "Const", "attr": {"value": {"tensor": {"dtype": "DT_INT32", "tensorShape": {"dim": [{"size": "4"}]}}}, "dtype": {"type": "DT_INT32"}}}, {"name": "StatefulPartitionedCall/transpose_97/perm", "op": "Const", "attr": {"dtype": {"type": "DT_INT32"}, "value": {"tensor": {"dtype": "DT_INT32", "tensorShape": {"dim": [{"size": "4"}]}}}}}, {"name": "StatefulPartitionedCall/transpose_98/perm", "op": "Const", "attr": {"value": {"tensor": {"dtype": "DT_INT32", "tensorShape": {"dim": [{"size": "4"}]}}}, "dtype": {"type": "DT_INT32"}}}, {"name": "StatefulPartitionedCall/transpose_99/perm", "op": "Const", "attr": {"value": {"tensor": {"dtype": "DT_INT32", "tensorShape": {"dim": [{"size": "4"}]}}}, "dtype": {"type": "DT_INT32"}}}, {"name": "StatefulPartitionedCall/transpose_61/perm", "op": "Const", "attr": {"value": {"tensor": {"dtype": "DT_INT32", "tensorShape": {"dim": [{"size": "4"}]}}}, "dtype": {"type": "DT_INT32"}}}, {"name": "StatefulPartitionedCall/split_20", "op": "Const", "attr": {"value": {"tensor": {"dtype": "DT_FLOAT", "tensorShape": {"dim": [{"size": "1"}, {"size": "1"}, {"size": "256"}, {"size": "128"}]}}}, "dtype": {"type": "DT_FLOAT"}}}, {"name": "unknown_44", "op": "Const", "attr": {"dtype": {"type": "DT_FLOAT"}, "value": {"tensor": {"dtype": "DT_FLOAT", "tensorShape": {"dim": [{"size": "128"}]}}}}}, {"name": "StatefulPartitionedCall/transpose_62/perm", "op": "Const", "attr": {"value": {"tensor": {"dtype": "DT_INT32", "tensorShape": {"dim": [{"size": "4"}]}}}, "dtype": {"type": "DT_INT32"}}}, {"name": "StatefulPartitionedCall/transpose_64/perm", "op": "Const", "attr": {"value": {"tensor": {"dtype": "DT_INT32", "tensorShape": {"dim": [{"size": "4"}]}}}, "dtype": {"type": "DT_INT32"}}}, {"name": "StatefulPartitionedCall/split_21", "op": "Const", "attr": {"dtype": {"type": "DT_FLOAT"}, "value": {"tensor": {"dtype": "DT_FLOAT", "tensorShape": {"dim": [{"size": "1"}, {"size": "1"}, {"size": "128"}, {"size": "128"}]}}}}}, {"name": "unknown_46", "op": "Const", "attr": {"value": {"tensor": {"dtype": "DT_FLOAT", "tensorShape": {"dim": [{"size": "128"}]}}}, "dtype": {"type": "DT_FLOAT"}}}, {"name": "StatefulPartitionedCall/transpose_65/perm", "op": "Const", "attr": {"value": {"tensor": {"dtype": "DT_INT32", "tensorShape": {"dim": [{"size": "4"}]}}}, "dtype": {"type": "DT_INT32"}}}, {"name": "StatefulPartitionedCall/Const_54", "op": "Const", "attr": {"value": {"tensor": {"dtype": "DT_INT32", "tensorShape": {"dim": [{"size": "4"}, {"size": "2"}]}}}, "dtype": {"type": "DT_INT32"}}}, {"name": "StatefulPartitionedCall/transpose_67/perm", "op": "Const", "attr": {"value": {"tensor": {"dtype": "DT_INT32", "tensorShape": {"dim": [{"size": "4"}]}}}, "dtype": {"type": "DT_INT32"}}}, {"name": "StatefulPartitionedCall/split_22", "op": "Const", "attr": {"dtype": {"type": "DT_FLOAT"}, "value": {"tensor": {"dtype": "DT_FLOAT", "tensorShape": {"dim": [{"size": "3"}, {"size": "3"}, {"size": "128"}, {"size": "128"}]}}}}}, {"name": "unknown_48", "op": "Const", "attr": {"value": {"tensor": {"dtype": "DT_FLOAT", "tensorShape": {"dim": [{"size": "128"}]}}}, "dtype": {"type": "DT_FLOAT"}}}, {"name": "StatefulPartitionedCall/transpose_68/perm", "op": "Const", "attr": {"dtype": {"type": "DT_INT32"}, "value": {"tensor": {"dtype": "DT_INT32", "tensorShape": {"dim": [{"size": "4"}]}}}}}, {"name": "StatefulPartitionedCall/transpose_70/perm", "op": "Const", "attr": {"value": {"tensor": {"dtype": "DT_INT32", "tensorShape": {"dim": [{"size": "4"}]}}}, "dtype": {"type": "DT_INT32"}}}, {"name": "StatefulPartitionedCall/split_23", "op": "Const", "attr": {"value": {"tensor": {"dtype": "DT_FLOAT", "tensorShape": {"dim": [{"size": "1"}, {"size": "1"}, {"size": "128"}, {"size": "128"}]}}}, "dtype": {"type": "DT_FLOAT"}}}, {"name": "unknown_50", "op": "Const", "attr": {"value": {"tensor": {"dtype": "DT_FLOAT", "tensorShape": {"dim": [{"size": "128"}]}}}, "dtype": {"type": "DT_FLOAT"}}}, {"name": "StatefulPartitionedCall/transpose_71/perm", "op": "Const", "attr": {"value": {"tensor": {"dtype": "DT_INT32", "tensorShape": {"dim": [{"size": "4"}]}}}, "dtype": {"type": "DT_INT32"}}}, {"name": "StatefulPartitionedCall/Const_57", "op": "Const", "attr": {"value": {"tensor": {"dtype": "DT_INT32", "tensorShape": {"dim": [{"size": "4"}, {"size": "2"}]}}}, "dtype": {"type": "DT_INT32"}}}, {"name": "StatefulPartitionedCall/transpose_73/perm", "op": "Const", "attr": {"value": {"tensor": {"dtype": "DT_INT32", "tensorShape": {"dim": [{"size": "4"}]}}}, "dtype": {"type": "DT_INT32"}}}, {"name": "StatefulPartitionedCall/split_24", "op": "Const", "attr": {"value": {"tensor": {"dtype": "DT_FLOAT", "tensorShape": {"dim": [{"size": "3"}, {"size": "3"}, {"size": "128"}, {"size": "128"}]}}}, "dtype": {"type": "DT_FLOAT"}}}, {"name": "unknown_52", "op": "Const", "attr": {"value": {"tensor": {"dtype": "DT_FLOAT", "tensorShape": {"dim": [{"size": "128"}]}}}, "dtype": {"type": "DT_FLOAT"}}}, {"name": "StatefulPartitionedCall/transpose_74/perm", "op": "Const", "attr": {"value": {"tensor": {"dtype": "DT_INT32", "tensorShape": {"dim": [{"size": "4"}]}}}, "dtype": {"type": "DT_INT32"}}}, {"name": "StatefulPartitionedCall/transpose_76/perm", "op": "Const", "attr": {"value": {"tensor": {"dtype": "DT_INT32", "tensorShape": {"dim": [{"size": "4"}]}}}, "dtype": {"type": "DT_INT32"}}}, {"name": "StatefulPartitionedCall/split_25", "op": "Const", "attr": {"value": {"tensor": {"dtype": "DT_FLOAT", "tensorShape": {"dim": [{"size": "1"}, {"size": "1"}, {"size": "128"}, {"size": "128"}]}}}, "dtype": {"type": "DT_FLOAT"}}}, {"name": "unknown_54", "op": "Const", "attr": {"value": {"tensor": {"dtype": "DT_FLOAT", "tensorShape": {"dim": [{"size": "128"}]}}}, "dtype": {"type": "DT_FLOAT"}}}, {"name": "StatefulPartitionedCall/transpose_77/perm", "op": "Const", "attr": {"value": {"tensor": {"dtype": "DT_INT32", "tensorShape": {"dim": [{"size": "4"}]}}}, "dtype": {"type": "DT_INT32"}}}, {"name": "StatefulPartitionedCall/Const_60", "op": "Const", "attr": {"value": {"tensor": {"dtype": "DT_INT32", "tensorShape": {"dim": [{"size": "4"}, {"size": "2"}]}}}, "dtype": {"type": "DT_INT32"}}}, {"name": "StatefulPartitionedCall/transpose_79/perm", "op": "Const", "attr": {"value": {"tensor": {"dtype": "DT_INT32", "tensorShape": {"dim": [{"size": "4"}]}}}, "dtype": {"type": "DT_INT32"}}}, {"name": "StatefulPartitionedCall/split_26", "op": "Const", "attr": {"value": {"tensor": {"dtype": "DT_FLOAT", "tensorShape": {"dim": [{"size": "3"}, {"size": "3"}, {"size": "128"}, {"size": "128"}]}}}, "dtype": {"type": "DT_FLOAT"}}}, {"name": "unknown_56", "op": "Const", "attr": {"value": {"tensor": {"dtype": "DT_FLOAT", "tensorShape": {"dim": [{"size": "128"}]}}}, "dtype": {"type": "DT_FLOAT"}}}, {"name": "StatefulPartitionedCall/transpose_80/perm", "op": "Const", "attr": {"value": {"tensor": {"dtype": "DT_INT32", "tensorShape": {"dim": [{"size": "4"}]}}}, "dtype": {"type": "DT_INT32"}}}, {"name": "StatefulPartitionedCall/transpose_82/perm", "op": "Const", "attr": {"value": {"tensor": {"dtype": "DT_INT32", "tensorShape": {"dim": [{"size": "4"}]}}}, "dtype": {"type": "DT_INT32"}}}, {"name": "StatefulPartitionedCall/split_27", "op": "Const", "attr": {"dtype": {"type": "DT_FLOAT"}, "value": {"tensor": {"dtype": "DT_FLOAT", "tensorShape": {"dim": [{"size": "1"}, {"size": "1"}, {"size": "128"}, {"size": "128"}]}}}}}, {"name": "StatefulPartitionedCall/transpose_83/perm", "op": "Const", "attr": {"value": {"tensor": {"dtype": "DT_INT32", "tensorShape": {"dim": [{"size": "4"}]}}}, "dtype": {"type": "DT_INT32"}}}, {"name": "StatefulPartitionedCall/transpose_28/perm", "op": "Const", "attr": {"value": {"tensor": {"dtype": "DT_INT32", "tensorShape": {"dim": [{"size": "4"}]}}}, "dtype": {"type": "DT_INT32"}}}, {"name": "StatefulPartitionedCall/split_9", "op": "Const", "attr": {"value": {"tensor": {"dtype": "DT_FLOAT", "tensorShape": {"dim": [{"size": "1"}, {"size": "1"}, {"size": "128"}, {"size": "64"}]}}}, "dtype": {"type": "DT_FLOAT"}}}, {"name": "unknown_20", "op": "Const", "attr": {"value": {"tensor": {"dtype": "DT_FLOAT", "tensorShape": {"dim": [{"size": "64"}]}}}, "dtype": {"type": "DT_FLOAT"}}}, {"name": "StatefulPartitionedCall/transpose_29/perm", "op": "Const", "attr": {"value": {"tensor": {"dtype": "DT_INT32", "tensorShape": {"dim": [{"size": "4"}]}}}, "dtype": {"type": "DT_INT32"}}}, {"name": "StatefulPartitionedCall/transpose_31/perm", "op": "Const", "attr": {"value": {"tensor": {"dtype": "DT_INT32", "tensorShape": {"dim": [{"size": "4"}]}}}, "dtype": {"type": "DT_INT32"}}}, {"name": "StatefulPartitionedCall/split_10", "op": "Const", "attr": {"value": {"tensor": {"dtype": "DT_FLOAT", "tensorShape": {"dim": [{"size": "1"}, {"size": "1"}, {"size": "64"}, {"size": "64"}]}}}, "dtype": {"type": "DT_FLOAT"}}}, {"name": "unknown_22", "op": "Const", "attr": {"value": {"tensor": {"dtype": "DT_FLOAT", "tensorShape": {"dim": [{"size": "64"}]}}}, "dtype": {"type": "DT_FLOAT"}}}, {"name": "StatefulPartitionedCall/transpose_32/perm", "op": "Const", "attr": {"dtype": {"type": "DT_INT32"}, "value": {"tensor": {"dtype": "DT_INT32", "tensorShape": {"dim": [{"size": "4"}]}}}}}, {"name": "StatefulPartitionedCall/Const_39", "op": "Const", "attr": {"value": {"tensor": {"dtype": "DT_INT32", "tensorShape": {"dim": [{"size": "4"}, {"size": "2"}]}}}, "dtype": {"type": "DT_INT32"}}}, {"name": "StatefulPartitionedCall/transpose_34/perm", "op": "Const", "attr": {"value": {"tensor": {"dtype": "DT_INT32", "tensorShape": {"dim": [{"size": "4"}]}}}, "dtype": {"type": "DT_INT32"}}}, {"name": "StatefulPartitionedCall/split_11", "op": "Const", "attr": {"value": {"tensor": {"dtype": "DT_FLOAT", "tensorShape": {"dim": [{"size": "3"}, {"size": "3"}, {"size": "64"}, {"size": "64"}]}}}, "dtype": {"type": "DT_FLOAT"}}}, {"name": "unknown_24", "op": "Const", "attr": {"value": {"tensor": {"dtype": "DT_FLOAT", "tensorShape": {"dim": [{"size": "64"}]}}}, "dtype": {"type": "DT_FLOAT"}}}, {"name": "StatefulPartitionedCall/transpose_35/perm", "op": "Const", "attr": {"value": {"tensor": {"dtype": "DT_INT32", "tensorShape": {"dim": [{"size": "4"}]}}}, "dtype": {"type": "DT_INT32"}}}, {"name": "StatefulPartitionedCall/transpose_37/perm", "op": "Const", "attr": {"value": {"tensor": {"dtype": "DT_INT32", "tensorShape": {"dim": [{"size": "4"}]}}}, "dtype": {"type": "DT_INT32"}}}, {"name": "StatefulPartitionedCall/split_12", "op": "Const", "attr": {"value": {"tensor": {"dtype": "DT_FLOAT", "tensorShape": {"dim": [{"size": "1"}, {"size": "1"}, {"size": "64"}, {"size": "64"}]}}}, "dtype": {"type": "DT_FLOAT"}}}, {"name": "unknown_26", "op": "Const", "attr": {"value": {"tensor": {"dtype": "DT_FLOAT", "tensorShape": {"dim": [{"size": "64"}]}}}, "dtype": {"type": "DT_FLOAT"}}}, {"name": "StatefulPartitionedCall/transpose_38/perm", "op": "Const", "attr": {"value": {"tensor": {"dtype": "DT_INT32", "tensorShape": {"dim": [{"size": "4"}]}}}, "dtype": {"type": "DT_INT32"}}}, {"name": "StatefulPartitionedCall/Const_42", "op": "Const", "attr": {"dtype": {"type": "DT_INT32"}, "value": {"tensor": {"dtype": "DT_INT32", "tensorShape": {"dim": [{"size": "4"}, {"size": "2"}]}}}}}, {"name": "StatefulPartitionedCall/transpose_40/perm", "op": "Const", "attr": {"value": {"tensor": {"dtype": "DT_INT32", "tensorShape": {"dim": [{"size": "4"}]}}}, "dtype": {"type": "DT_INT32"}}}, {"name": "StatefulPartitionedCall/split_13", "op": "Const", "attr": {"value": {"tensor": {"dtype": "DT_FLOAT", "tensorShape": {"dim": [{"size": "3"}, {"size": "3"}, {"size": "64"}, {"size": "64"}]}}}, "dtype": {"type": "DT_FLOAT"}}}, {"name": "unknown_28", "op": "Const", "attr": {"value": {"tensor": {"dtype": "DT_FLOAT", "tensorShape": {"dim": [{"size": "64"}]}}}, "dtype": {"type": "DT_FLOAT"}}}, {"name": "StatefulPartitionedCall/transpose_41/perm", "op": "Const", "attr": {"dtype": {"type": "DT_INT32"}, "value": {"tensor": {"dtype": "DT_INT32", "tensorShape": {"dim": [{"size": "4"}]}}}}}, {"name": "StatefulPartitionedCall/transpose_43/perm", "op": "Const", "attr": {"value": {"tensor": {"dtype": "DT_INT32", "tensorShape": {"dim": [{"size": "4"}]}}}, "dtype": {"type": "DT_INT32"}}}, {"name": "StatefulPartitionedCall/split_14", "op": "Const", "attr": {"value": {"tensor": {"dtype": "DT_FLOAT", "tensorShape": {"dim": [{"size": "1"}, {"size": "1"}, {"size": "64"}, {"size": "64"}]}}}, "dtype": {"type": "DT_FLOAT"}}}, {"name": "unknown_30", "op": "Const", "attr": {"value": {"tensor": {"dtype": "DT_FLOAT", "tensorShape": {"dim": [{"size": "64"}]}}}, "dtype": {"type": "DT_FLOAT"}}}, {"name": "StatefulPartitionedCall/transpose_44/perm", "op": "Const", "attr": {"value": {"tensor": {"dtype": "DT_INT32", "tensorShape": {"dim": [{"size": "4"}]}}}, "dtype": {"type": "DT_INT32"}}}, {"name": "StatefulPartitionedCall/Const_45", "op": "Const", "attr": {"value": {"tensor": {"dtype": "DT_INT32", "tensorShape": {"dim": [{"size": "4"}, {"size": "2"}]}}}, "dtype": {"type": "DT_INT32"}}}, {"name": "StatefulPartitionedCall/transpose_46/perm", "op": "Const", "attr": {"dtype": {"type": "DT_INT32"}, "value": {"tensor": {"dtype": "DT_INT32", "tensorShape": {"dim": [{"size": "4"}]}}}}}, {"name": "StatefulPartitionedCall/split_15", "op": "Const", "attr": {"value": {"tensor": {"dtype": "DT_FLOAT", "tensorShape": {"dim": [{"size": "3"}, {"size": "3"}, {"size": "64"}, {"size": "64"}]}}}, "dtype": {"type": "DT_FLOAT"}}}, {"name": "unknown_32", "op": "Const", "attr": {"value": {"tensor": {"dtype": "DT_FLOAT", "tensorShape": {"dim": [{"size": "64"}]}}}, "dtype": {"type": "DT_FLOAT"}}}, {"name": "StatefulPartitionedCall/transpose_47/perm", "op": "Const", "attr": {"value": {"tensor": {"dtype": "DT_INT32", "tensorShape": {"dim": [{"size": "4"}]}}}, "dtype": {"type": "DT_INT32"}}}, {"name": "StatefulPartitionedCall/transpose_49/perm", "op": "Const", "attr": {"dtype": {"type": "DT_INT32"}, "value": {"tensor": {"dtype": "DT_INT32", "tensorShape": {"dim": [{"size": "4"}]}}}}}, {"name": "StatefulPartitionedCall/split_16", "op": "Const", "attr": {"dtype": {"type": "DT_FLOAT"}, "value": {"tensor": {"dtype": "DT_FLOAT", "tensorShape": {"dim": [{"size": "1"}, {"size": "1"}, {"size": "64"}, {"size": "64"}]}}}}}, {"name": "StatefulPartitionedCall/transpose_50/perm", "op": "Const", "attr": {"value": {"tensor": {"dtype": "DT_INT32", "tensorShape": {"dim": [{"size": "4"}]}}}, "dtype": {"type": "DT_INT32"}}}, {"name": "StatefulPartitionedCall/transpose_7/perm", "op": "Const", "attr": {"value": {"tensor": {"dtype": "DT_INT32", "tensorShape": {"dim": [{"size": "4"}]}}}, "dtype": {"type": "DT_INT32"}}}, {"name": "StatefulPartitionedCall/split_2", "op": "Const", "attr": {"value": {"tensor": {"dtype": "DT_FLOAT", "tensorShape": {"dim": [{"size": "1"}, {"size": "1"}, {"size": "64"}, {"size": "32"}]}}}, "dtype": {"type": "DT_FLOAT"}}}, {"name": "unknown_4", "op": "Const", "attr": {"value": {"tensor": {"dtype": "DT_FLOAT", "tensorShape": {"dim": [{"size": "32"}]}}}, "dtype": {"type": "DT_FLOAT"}}}, {"name": "StatefulPartitionedCall/transpose_8/perm", "op": "Const", "attr": {"value": {"tensor": {"dtype": "DT_INT32", "tensorShape": {"dim": [{"size": "4"}]}}}, "dtype": {"type": "DT_INT32"}}}, {"name": "StatefulPartitionedCall/transpose_10/perm", "op": "Const", "attr": {"value": {"tensor": {"dtype": "DT_INT32", "tensorShape": {"dim": [{"size": "4"}]}}}, "dtype": {"type": "DT_INT32"}}}, {"name": "StatefulPartitionedCall/split_3", "op": "Const", "attr": {"value": {"tensor": {"dtype": "DT_FLOAT", "tensorShape": {"dim": [{"size": "1"}, {"size": "1"}, {"size": "32"}, {"size": "32"}]}}}, "dtype": {"type": "DT_FLOAT"}}}, {"name": "unknown_6", "op": "Const", "attr": {"value": {"tensor": {"dtype": "DT_FLOAT", "tensorShape": {"dim": [{"size": "32"}]}}}, "dtype": {"type": "DT_FLOAT"}}}, {"name": "StatefulPartitionedCall/transpose_11/perm", "op": "Const", "attr": {"value": {"tensor": {"dtype": "DT_INT32", "tensorShape": {"dim": [{"size": "4"}]}}}, "dtype": {"type": "DT_INT32"}}}, {"name": "StatefulPartitionedCall/Const_30", "op": "Const", "attr": {"value": {"tensor": {"dtype": "DT_INT32", "tensorShape": {"dim": [{"size": "4"}, {"size": "2"}]}}}, "dtype": {"type": "DT_INT32"}}}, {"name": "StatefulPartitionedCall/transpose_13/perm", "op": "Const", "attr": {"value": {"tensor": {"dtype": "DT_INT32", "tensorShape": {"dim": [{"size": "4"}]}}}, "dtype": {"type": "DT_INT32"}}}, {"name": "StatefulPartitionedCall/split_4", "op": "Const", "attr": {"value": {"tensor": {"dtype": "DT_FLOAT", "tensorShape": {"dim": [{"size": "3"}, {"size": "3"}, {"size": "32"}, {"size": "32"}]}}}, "dtype": {"type": "DT_FLOAT"}}}, {"name": "unknown_8", "op": "Const", "attr": {"value": {"tensor": {"dtype": "DT_FLOAT", "tensorShape": {"dim": [{"size": "32"}]}}}, "dtype": {"type": "DT_FLOAT"}}}, {"name": "StatefulPartitionedCall/transpose_14/perm", "op": "Const", "attr": {"dtype": {"type": "DT_INT32"}, "value": {"tensor": {"dtype": "DT_INT32", "tensorShape": {"dim": [{"size": "4"}]}}}}}, {"name": "StatefulPartitionedCall/transpose_16/perm", "op": "Const", "attr": {"value": {"tensor": {"dtype": "DT_INT32", "tensorShape": {"dim": [{"size": "4"}]}}}, "dtype": {"type": "DT_INT32"}}}, {"name": "StatefulPartitionedCall/split_5", "op": "Const", "attr": {"dtype": {"type": "DT_FLOAT"}, "value": {"tensor": {"dtype": "DT_FLOAT", "tensorShape": {"dim": [{"size": "1"}, {"size": "1"}, {"size": "32"}, {"size": "32"}]}}}}}, {"name": "StatefulPartitionedCall/transpose_17/perm", "op": "Const", "attr": {"value": {"tensor": {"dtype": "DT_INT32", "tensorShape": {"dim": [{"size": "4"}]}}}, "dtype": {"type": "DT_INT32"}}}, {"name": "StatefulPartitionedCall/SelectV2_1", "op": "Const", "attr": {"value": {"tensor": {"dtype": "DT_INT64", "tensorShape": {"dim": [{"size": "1"}]}}}, "dtype": {"type": "DT_INT64"}}}, {"name": "StatefulPartitionedCall/zeros", "op": "Const", "attr": {"value": {"tensor": {"dtype": "DT_INT64", "tensorShape": {}}}, "dtype": {"type": "DT_INT64"}}}, {"name": "StatefulPartitionedCall/Const_1", "op": "Const", "attr": {"value": {"tensor": {"dtype": "DT_INT64", "tensorShape": {}}}, "dtype": {"type": "DT_INT64"}}}, {"name": "StatefulPartitionedCall/Shape", "op": "Const", "attr": {"value": {"tensor": {"dtype": "DT_INT64", "tensorShape": {"dim": [{"size": "4"}]}}}, "dtype": {"type": "DT_INT64"}}}, {"name": "StatefulPartitionedCall/SelectV2_2", "op": "Const", "attr": {"value": {"tensor": {"dtype": "DT_INT64", "tensorShape": {"dim": [{"size": "1"}]}}}, "dtype": {"type": "DT_INT64"}}}, {"name": "StatefulPartitionedCall/Const", "op": "Const", "attr": {"value": {"tensor": {"dtype": "DT_INT64", "tensorShape": {}}}, "dtype": {"type": "DT_INT64"}}}, {"name": "StatefulPartitionedCall/ExpandDims", "op": "Const", "attr": {"value": {"tensor": {"dtype": "DT_INT64", "tensorShape": {"dim": [{"size": "1"}, {"size": "1"}]}}}, "dtype": {"type": "DT_INT64"}}}, {"name": "StatefulPartitionedCall/Cast_1", "op": "Const", "attr": {"value": {"tensor": {"dtype": "DT_INT64", "tensorShape": {"dim": [{"size": "1"}]}}}, "dtype": {"type": "DT_INT64"}}}, {"name": "StatefulPartitionedCall/onnx_tf_prefix_Constant_3", "op": "Const", "attr": {"value": {"tensor": {"dtype": "DT_INT64", "tensorShape": {"dim": [{"size": "1"}]}}}, "dtype": {"type": "DT_INT64"}}}, {"name": "StatefulPartitionedCall/Const_2", "op": "Const", "attr": {"dtype": {"type": "DT_INT64"}, "value": {"tensor": {"dtype": "DT_INT64", "tensorShape": {}}}}}, {"name": "StatefulPartitionedCall/SelectV2_5", "op": "Const", "attr": {"value": {"tensor": {"dtype": "DT_INT64", "tensorShape": {"dim": [{"size": "1"}]}}}, "dtype": {"type": "DT_INT64"}}}, {"name": "StatefulPartitionedCall/zeros_1", "op": "Const", "attr": {"value": {"tensor": {"dtype": "DT_INT64", "tensorShape": {}}}, "dtype": {"type": "DT_INT64"}}}, {"name": "StatefulPartitionedCall/Const_4", "op": "Const", "attr": {"value": {"tensor": {"dtype": "DT_INT64", "tensorShape": {}}}, "dtype": {"type": "DT_INT64"}}}, {"name": "StatefulPartitionedCall/Shape_1", "op": "Const", "attr": {"value": {"tensor": {"dtype": "DT_INT64", "tensorShape": {"dim": [{"size": "4"}]}}}, "dtype": {"type": "DT_INT64"}}}, {"name": "StatefulPartitionedCall/SelectV2_6", "op": "Const", "attr": {"value": {"tensor": {"dtype": "DT_INT64", "tensorShape": {"dim": [{"size": "1"}]}}}, "dtype": {"type": "DT_INT64"}}}, {"name": "StatefulPartitionedCall/Const_3", "op": "Const", "attr": {"value": {"tensor": {"dtype": "DT_INT64", "tensorShape": {}}}, "dtype": {"type": "DT_INT64"}}}, {"name": "StatefulPartitionedCall/ExpandDims_1", "op": "Const", "attr": {"value": {"tensor": {"dtype": "DT_INT64", "tensorShape": {"dim": [{"size": "1"}, {"size": "1"}]}}}, "dtype": {"type": "DT_INT64"}}}, {"name": "StatefulPartitionedCall/Cast_3", "op": "Const", "attr": {"value": {"tensor": {"dtype": "DT_INT64", "tensorShape": {"dim": [{"size": "1"}]}}}, "dtype": {"type": "DT_INT64"}}}, {"name": "StatefulPartitionedCall/onnx_tf_prefix_Constant_8", "op": "Const", "attr": {"value": {"tensor": {"dtype": "DT_INT64", "tensorShape": {"dim": [{"size": "1"}]}}}, "dtype": {"type": "DT_INT64"}}}, {"name": "StatefulPartitionedCall/Const_5", "op": "Const", "attr": {"value": {"tensor": {"dtype": "DT_INT64", "tensorShape": {}}}, "dtype": {"type": "DT_INT64"}}}, {"name": "StatefulPartitionedCall/SelectV2_9", "op": "Const", "attr": {"value": {"tensor": {"dtype": "DT_INT64", "tensorShape": {"dim": [{"size": "1"}]}}}, "dtype": {"type": "DT_INT64"}}}, {"name": "StatefulPartitionedCall/zeros_2", "op": "Const", "attr": {"value": {"tensor": {"dtype": "DT_INT64", "tensorShape": {}}}, "dtype": {"type": "DT_INT64"}}}, {"name": "StatefulPartitionedCall/Const_7", "op": "Const", "attr": {"value": {"tensor": {"dtype": "DT_INT64", "tensorShape": {}}}, "dtype": {"type": "DT_INT64"}}}, {"name": "StatefulPartitionedCall/Shape_2", "op": "Const", "attr": {"value": {"tensor": {"dtype": "DT_INT64", "tensorShape": {"dim": [{"size": "4"}]}}}, "dtype": {"type": "DT_INT64"}}}, {"name": "StatefulPartitionedCall/SelectV2_10", "op": "Const", "attr": {"value": {"tensor": {"dtype": "DT_INT64", "tensorShape": {"dim": [{"size": "1"}]}}}, "dtype": {"type": "DT_INT64"}}}, {"name": "StatefulPartitionedCall/Const_6", "op": "Const", "attr": {"value": {"tensor": {"dtype": "DT_INT64", "tensorShape": {}}}, "dtype": {"type": "DT_INT64"}}}, {"name": "StatefulPartitionedCall/ExpandDims_2", "op": "Const", "attr": {"dtype": {"type": "DT_INT64"}, "value": {"tensor": {"dtype": "DT_INT64", "tensorShape": {"dim": [{"size": "1"}, {"size": "1"}]}}}}}, {"name": "StatefulPartitionedCall/Cast_5", "op": "Const", "attr": {"value": {"tensor": {"dtype": "DT_INT64", "tensorShape": {"dim": [{"size": "1"}]}}}, "dtype": {"type": "DT_INT64"}}}, {"name": "StatefulPartitionedCall/onnx_tf_prefix_Constant_13", "op": "Const", "attr": {"value": {"tensor": {"dtype": "DT_INT64", "tensorShape": {"dim": [{"size": "1"}]}}}, "dtype": {"type": "DT_INT64"}}}, {"name": "StatefulPartitionedCall/Const_8", "op": "Const", "attr": {"value": {"tensor": {"dtype": "DT_INT64", "tensorShape": {}}}, "dtype": {"type": "DT_INT64"}}}, {"name": "StatefulPartitionedCall/SelectV2_13", "op": "Const", "attr": {"value": {"tensor": {"dtype": "DT_INT64", "tensorShape": {"dim": [{"size": "1"}]}}}, "dtype": {"type": "DT_INT64"}}}, {"name": "StatefulPartitionedCall/zeros_3", "op": "Const", "attr": {"value": {"tensor": {"dtype": "DT_INT64", "tensorShape": {}}}, "dtype": {"type": "DT_INT64"}}}, {"name": "StatefulPartitionedCall/Const_10", "op": "Const", "attr": {"value": {"tensor": {"dtype": "DT_INT64", "tensorShape": {}}}, "dtype": {"type": "DT_INT64"}}}, {"name": "StatefulPartitionedCall/Shape_3", "op": "Const", "attr": {"value": {"tensor": {"dtype": "DT_INT64", "tensorShape": {"dim": [{"size": "4"}]}}}, "dtype": {"type": "DT_INT64"}}}, {"name": "StatefulPartitionedCall/SelectV2_14", "op": "Const", "attr": {"value": {"tensor": {"dtype": "DT_INT64", "tensorShape": {"dim": [{"size": "1"}]}}}, "dtype": {"type": "DT_INT64"}}}, {"name": "StatefulPartitionedCall/Const_9", "op": "Const", "attr": {"dtype": {"type": "DT_INT64"}, "value": {"tensor": {"dtype": "DT_INT64", "tensorShape": {}}}}}, {"name": "StatefulPartitionedCall/ExpandDims_3", "op": "Const", "attr": {"value": {"tensor": {"dtype": "DT_INT64", "tensorShape": {"dim": [{"size": "1"}, {"size": "1"}]}}}, "dtype": {"type": "DT_INT64"}}}, {"name": "StatefulPartitionedCall/Cast_7", "op": "Const", "attr": {"value": {"tensor": {"dtype": "DT_INT64", "tensorShape": {"dim": [{"size": "1"}]}}}, "dtype": {"type": "DT_INT64"}}}, {"name": "StatefulPartitionedCall/onnx_tf_prefix_Constant_18", "op": "Const", "attr": {"value": {"tensor": {"dtype": "DT_INT64", "tensorShape": {"dim": [{"size": "1"}]}}}, "dtype": {"type": "DT_INT64"}}}, {"name": "StatefulPartitionedCall/Const_11", "op": "Const", "attr": {"value": {"tensor": {"dtype": "DT_INT64", "tensorShape": {}}}, "dtype": {"type": "DT_INT64"}}}, {"name": "StatefulPartitionedCall/SelectV2_17", "op": "Const", "attr": {"value": {"tensor": {"dtype": "DT_INT64", "tensorShape": {"dim": [{"size": "1"}]}}}, "dtype": {"type": "DT_INT64"}}}, {"name": "StatefulPartitionedCall/zeros_4", "op": "Const", "attr": {"value": {"tensor": {"dtype": "DT_INT64", "tensorShape": {}}}, "dtype": {"type": "DT_INT64"}}}, {"name": "StatefulPartitionedCall/Const_13", "op": "Const", "attr": {"value": {"tensor": {"dtype": "DT_INT64", "tensorShape": {}}}, "dtype": {"type": "DT_INT64"}}}, {"name": "StatefulPartitionedCall/Shape_4", "op": "Const", "attr": {"dtype": {"type": "DT_INT64"}, "value": {"tensor": {"dtype": "DT_INT64", "tensorShape": {"dim": [{"size": "4"}]}}}}}, {"name": "StatefulPartitionedCall/SelectV2_18", "op": "Const", "attr": {"value": {"tensor": {"dtype": "DT_INT64", "tensorShape": {"dim": [{"size": "1"}]}}}, "dtype": {"type": "DT_INT64"}}}, {"name": "StatefulPartitionedCall/Const_12", "op": "Const", "attr": {"value": {"tensor": {"dtype": "DT_INT64", "tensorShape": {}}}, "dtype": {"type": "DT_INT64"}}}, {"name": "StatefulPartitionedCall/ExpandDims_4", "op": "Const", "attr": {"value": {"tensor": {"dtype": "DT_INT64", "tensorShape": {"dim": [{"size": "1"}, {"size": "1"}]}}}, "dtype": {"type": "DT_INT64"}}}, {"name": "StatefulPartitionedCall/Cast_9", "op": "Const", "attr": {"value": {"tensor": {"dtype": "DT_INT64", "tensorShape": {"dim": [{"size": "1"}]}}}, "dtype": {"type": "DT_INT64"}}}, {"name": "StatefulPartitionedCall/onnx_tf_prefix_Constant_23", "op": "Const", "attr": {"value": {"tensor": {"dtype": "DT_INT64", "tensorShape": {"dim": [{"size": "1"}]}}}, "dtype": {"type": "DT_INT64"}}}, {"name": "StatefulPartitionedCall/Const_14", "op": "Const", "attr": {"value": {"tensor": {"dtype": "DT_INT64", "tensorShape": {}}}, "dtype": {"type": "DT_INT64"}}}, {"name": "StatefulPartitionedCall/SelectV2_21", "op": "Const", "attr": {"value": {"tensor": {"dtype": "DT_INT64", "tensorShape": {"dim": [{"size": "1"}]}}}, "dtype": {"type": "DT_INT64"}}}, {"name": "StatefulPartitionedCall/zeros_5", "op": "Const", "attr": {"value": {"tensor": {"dtype": "DT_INT64", "tensorShape": {}}}, "dtype": {"type": "DT_INT64"}}}, {"name": "StatefulPartitionedCall/Const_16", "op": "Const", "attr": {"dtype": {"type": "DT_INT64"}, "value": {"tensor": {"dtype": "DT_INT64", "tensorShape": {}}}}}, {"name": "StatefulPartitionedCall/Shape_5", "op": "Const", "attr": {"value": {"tensor": {"dtype": "DT_INT64", "tensorShape": {"dim": [{"size": "4"}]}}}, "dtype": {"type": "DT_INT64"}}}, {"name": "StatefulPartitionedCall/SelectV2_22", "op": "Const", "attr": {"dtype": {"type": "DT_INT64"}, "value": {"tensor": {"dtype": "DT_INT64", "tensorShape": {"dim": [{"size": "1"}]}}}}}, {"name": "StatefulPartitionedCall/Const_15", "op": "Const", "attr": {"dtype": {"type": "DT_INT64"}, "value": {"tensor": {"dtype": "DT_INT64", "tensorShape": {}}}}}, {"name": "StatefulPartitionedCall/ExpandDims_5", "op": "Const", "attr": {"value": {"tensor": {"dtype": "DT_INT64", "tensorShape": {"dim": [{"size": "1"}, {"size": "1"}]}}}, "dtype": {"type": "DT_INT64"}}}, {"name": "StatefulPartitionedCall/Cast_11", "op": "Const", "attr": {"value": {"tensor": {"dtype": "DT_INT64", "tensorShape": {"dim": [{"size": "1"}]}}}, "dtype": {"type": "DT_INT64"}}}, {"name": "StatefulPartitionedCall/onnx_tf_prefix_Constant_28", "op": "Const", "attr": {"value": {"tensor": {"dtype": "DT_INT64", "tensorShape": {"dim": [{"size": "1"}]}}}, "dtype": {"type": "DT_INT64"}}}, {"name": "StatefulPartitionedCall/Const_17", "op": "Const", "attr": {"value": {"tensor": {"dtype": "DT_INT64", "tensorShape": {}}}, "dtype": {"type": "DT_INT64"}}}, {"name": "StatefulPartitionedCall/SelectV2_25", "op": "Const", "attr": {"value": {"tensor": {"dtype": "DT_INT64", "tensorShape": {"dim": [{"size": "1"}]}}}, "dtype": {"type": "DT_INT64"}}}, {"name": "StatefulPartitionedCall/zeros_6", "op": "Const", "attr": {"value": {"tensor": {"dtype": "DT_INT64", "tensorShape": {}}}, "dtype": {"type": "DT_INT64"}}}, {"name": "StatefulPartitionedCall/Const_19", "op": "Const", "attr": {"value": {"tensor": {"dtype": "DT_INT64", "tensorShape": {}}}, "dtype": {"type": "DT_INT64"}}}, {"name": "StatefulPartitionedCall/Shape_6", "op": "Const", "attr": {"value": {"tensor": {"dtype": "DT_INT64", "tensorShape": {"dim": [{"size": "4"}]}}}, "dtype": {"type": "DT_INT64"}}}, {"name": "StatefulPartitionedCall/SelectV2_26", "op": "Const", "attr": {"value": {"tensor": {"dtype": "DT_INT64", "tensorShape": {"dim": [{"size": "1"}]}}}, "dtype": {"type": "DT_INT64"}}}, {"name": "StatefulPartitionedCall/Const_18", "op": "Const", "attr": {"value": {"tensor": {"dtype": "DT_INT64", "tensorShape": {}}}, "dtype": {"type": "DT_INT64"}}}, {"name": "StatefulPartitionedCall/ExpandDims_6", "op": "Const", "attr": {"dtype": {"type": "DT_INT64"}, "value": {"tensor": {"dtype": "DT_INT64", "tensorShape": {"dim": [{"size": "1"}, {"size": "1"}]}}}}}, {"name": "StatefulPartitionedCall/Cast_13", "op": "Const", "attr": {"value": {"tensor": {"dtype": "DT_INT64", "tensorShape": {"dim": [{"size": "1"}]}}}, "dtype": {"type": "DT_INT64"}}}, {"name": "StatefulPartitionedCall/onnx_tf_prefix_Constant_33", "op": "Const", "attr": {"value": {"tensor": {"dtype": "DT_INT64", "tensorShape": {"dim": [{"size": "1"}]}}}, "dtype": {"type": "DT_INT64"}}}, {"name": "StatefulPartitionedCall/Const_20", "op": "Const", "attr": {"value": {"tensor": {"dtype": "DT_INT64", "tensorShape": {}}}, "dtype": {"type": "DT_INT64"}}}, {"name": "StatefulPartitionedCall/SelectV2_29", "op": "Const", "attr": {"value": {"tensor": {"dtype": "DT_INT64", "tensorShape": {"dim": [{"size": "1"}]}}}, "dtype": {"type": "DT_INT64"}}}, {"name": "StatefulPartitionedCall/zeros_7", "op": "Const", "attr": {"value": {"tensor": {"dtype": "DT_INT64", "tensorShape": {}}}, "dtype": {"type": "DT_INT64"}}}, {"name": "StatefulPartitionedCall/Const_22", "op": "Const", "attr": {"value": {"tensor": {"dtype": "DT_INT64", "tensorShape": {}}}, "dtype": {"type": "DT_INT64"}}}, {"name": "StatefulPartitionedCall/Shape_7", "op": "Const", "attr": {"value": {"tensor": {"dtype": "DT_INT64", "tensorShape": {"dim": [{"size": "4"}]}}}, "dtype": {"type": "DT_INT64"}}}, {"name": "StatefulPartitionedCall/SelectV2_30", "op": "Const", "attr": {"value": {"tensor": {"dtype": "DT_INT64", "tensorShape": {"dim": [{"size": "1"}]}}}, "dtype": {"type": "DT_INT64"}}}, {"name": "StatefulPartitionedCall/Const_21", "op": "Const", "attr": {"value": {"tensor": {"dtype": "DT_INT64", "tensorShape": {}}}, "dtype": {"type": "DT_INT64"}}}, {"name": "StatefulPartitionedCall/ExpandDims_7", "op": "Const", "attr": {"value": {"tensor": {"dtype": "DT_INT64", "tensorShape": {"dim": [{"size": "1"}, {"size": "1"}]}}}, "dtype": {"type": "DT_INT64"}}}, {"name": "StatefulPartitionedCall/Cast_15", "op": "Const", "attr": {"value": {"tensor": {"dtype": "DT_INT64", "tensorShape": {"dim": [{"size": "1"}]}}}, "dtype": {"type": "DT_INT64"}}}, {"name": "StatefulPartitionedCall/onnx_tf_prefix_Constant_38", "op": "Const", "attr": {"value": {"tensor": {"dtype": "DT_INT64", "tensorShape": {"dim": [{"size": "1"}]}}}, "dtype": {"type": "DT_INT64"}}}, {"name": "StatefulPartitionedCall/Const_23", "op": "Const", "attr": {"value": {"tensor": {"dtype": "DT_INT64", "tensorShape": {}}}, "dtype": {"type": "DT_INT64"}}}, {"name": "StatefulPartitionedCall/onnx_tf_prefix_Concat_40/axis", "op": "Const", "attr": {"dtype": {"type": "DT_INT32"}, "value": {"tensor": {"dtype": "DT_INT32", "tensorShape": {}}}}}, {"name": "StatefulPartitionedCall/Const_24", "op": "Const", "attr": {"value": {"tensor": {"dtype": "DT_INT32", "tensorShape": {"dim": [{"size": "4"}, {"size": "2"}]}}}, "dtype": {"type": "DT_INT32"}}}, {"name": "StatefulPartitionedCall/transpose_1/perm", "op": "Const", "attr": {"value": {"tensor": {"dtype": "DT_INT32", "tensorShape": {"dim": [{"size": "4"}]}}}, "dtype": {"type": "DT_INT32"}}}, {"name": "StatefulPartitionedCall/split", "op": "Const", "attr": {"value": {"tensor": {"dtype": "DT_FLOAT", "tensorShape": {"dim": [{"size": "3"}, {"size": "3"}, {"size": "12"}, {"size": "32"}]}}}, "dtype": {"type": "DT_FLOAT"}}}, {"name": "unknown_0", "op": "Const", "attr": {"value": {"tensor": {"dtype": "DT_FLOAT", "tensorShape": {"dim": [{"size": "32"}]}}}, "dtype": {"type": "DT_FLOAT"}}}, {"name": "StatefulPartitionedCall/transpose_2/perm", "op": "Const", "attr": {"value": {"tensor": {"dtype": "DT_INT32", "tensorShape": {"dim": [{"size": "4"}]}}}, "dtype": {"type": "DT_INT32"}}}, {"name": "StatefulPartitionedCall/Const_26", "op": "Const", "attr": {"dtype": {"type": "DT_INT32"}, "value": {"tensor": {"dtype": "DT_INT32", "tensorShape": {"dim": [{"size": "4"}, {"size": "2"}]}}}}}, {"name": "StatefulPartitionedCall/transpose_4/perm", "op": "Const", "attr": {"value": {"tensor": {"dtype": "DT_INT32", "tensorShape": {"dim": [{"size": "4"}]}}}, "dtype": {"type": "DT_INT32"}}}, {"name": "StatefulPartitionedCall/split_1", "op": "Const", "attr": {"value": {"tensor": {"dtype": "DT_FLOAT", "tensorShape": {"dim": [{"size": "3"}, {"size": "3"}, {"size": "32"}, {"size": "64"}]}}}, "dtype": {"type": "DT_FLOAT"}}}, {"name": "unknown_2", "op": "Const", "attr": {"value": {"tensor": {"dtype": "DT_FLOAT", "tensorShape": {"dim": [{"size": "64"}]}}}, "dtype": {"type": "DT_FLOAT"}}}, {"name": "StatefulPartitionedCall/transpose_5/perm", "op": "Const", "attr": {"dtype": {"type": "DT_INT32"}, "value": {"tensor": {"dtype": "DT_INT32", "tensorShape": {"dim": [{"size": "4"}]}}}}}, {"name": "StatefulPartitionedCall/transpose_19/perm", "op": "Const", "attr": {"value": {"tensor": {"dtype": "DT_INT32", "tensorShape": {"dim": [{"size": "4"}]}}}, "dtype": {"type": "DT_INT32"}}}, {"name": "StatefulPartitionedCall/split_6", "op": "Const", "attr": {"value": {"tensor": {"dtype": "DT_FLOAT", "tensorShape": {"dim": [{"size": "1"}, {"size": "1"}, {"size": "64"}, {"size": "32"}]}}}, "dtype": {"type": "DT_FLOAT"}}}, {"name": "StatefulPartitionedCall/transpose_20/perm", "op": "Const", "attr": {"value": {"tensor": {"dtype": "DT_INT32", "tensorShape": {"dim": [{"size": "4"}]}}}, "dtype": {"type": "DT_INT32"}}}, {"name": "StatefulPartitionedCall/onnx_tf_prefix_Concat_59/axis", "op": "Const", "attr": {"value": {"tensor": {"dtype": "DT_INT32", "tensorShape": {}}}, "dtype": {"type": "DT_INT32"}}}, {"name": "StatefulPartitionedCall/onnx_tf_prefix_BatchNormalization_60/mul", "op": "Const", "attr": {"value": {"tensor": {"dtype": "DT_FLOAT", "tensorShape": {"dim": [{"size": "1"}, {"size": "64"}, {"size": "1"}, {"size": "1"}]}}}, "dtype": {"type": "DT_FLOAT"}}}, {"name": "StatefulPartitionedCall/onnx_tf_prefix_BatchNormalization_60/sub", "op": "Const", "attr": {"value": {"tensor": {"dtype": "DT_FLOAT", "tensorShape": {"dim": [{"size": "1"}, {"size": "64"}, {"size": "1"}, {"size": "1"}]}}}, "dtype": {"type": "DT_FLOAT"}}}, {"name": "StatefulPartitionedCall/transpose_22/perm", "op": "Const", "attr": {"value": {"tensor": {"dtype": "DT_INT32", "tensorShape": {"dim": [{"size": "4"}]}}}, "dtype": {"type": "DT_INT32"}}}, {"name": "StatefulPartitionedCall/split_7", "op": "Const", "attr": {"value": {"tensor": {"dtype": "DT_FLOAT", "tensorShape": {"dim": [{"size": "1"}, {"size": "1"}, {"size": "64"}, {"size": "64"}]}}}, "dtype": {"type": "DT_FLOAT"}}}, {"name": "unknown_16", "op": "Const", "attr": {"value": {"tensor": {"dtype": "DT_FLOAT", "tensorShape": {"dim": [{"size": "64"}]}}}, "dtype": {"type": "DT_FLOAT"}}}, {"name": "StatefulPartitionedCall/transpose_23/perm", "op": "Const", "attr": {"value": {"tensor": {"dtype": "DT_INT32", "tensorShape": {"dim": [{"size": "4"}]}}}, "dtype": {"type": "DT_INT32"}}}, {"name": "StatefulPartitionedCall/Const_35", "op": "Const", "attr": {"value": {"tensor": {"dtype": "DT_INT32", "tensorShape": {"dim": [{"size": "4"}, {"size": "2"}]}}}, "dtype": {"type": "DT_INT32"}}}, {"name": "StatefulPartitionedCall/transpose_25/perm", "op": "Const", "attr": {"value": {"tensor": {"dtype": "DT_INT32", "tensorShape": {"dim": [{"size": "4"}]}}}, "dtype": {"type": "DT_INT32"}}}, {"name": "StatefulPartitionedCall/split_8", "op": "Const", "attr": {"value": {"tensor": {"dtype": "DT_FLOAT", "tensorShape": {"dim": [{"size": "3"}, {"size": "3"}, {"size": "64"}, {"size": "128"}]}}}, "dtype": {"type": "DT_FLOAT"}}}, {"name": "unknown_18", "op": "Const", "attr": {"value": {"tensor": {"dtype": "DT_FLOAT", "tensorShape": {"dim": [{"size": "128"}]}}}, "dtype": {"type": "DT_FLOAT"}}}, {"name": "StatefulPartitionedCall/transpose_26/perm", "op": "Const", "attr": {"value": {"tensor": {"dtype": "DT_INT32", "tensorShape": {"dim": [{"size": "4"}]}}}, "dtype": {"type": "DT_INT32"}}}, {"name": "StatefulPartitionedCall/transpose_52/perm", "op": "Const", "attr": {"value": {"tensor": {"dtype": "DT_INT32", "tensorShape": {"dim": [{"size": "4"}]}}}, "dtype": {"type": "DT_INT32"}}}, {"name": "StatefulPartitionedCall/split_17", "op": "Const", "attr": {"value": {"tensor": {"dtype": "DT_FLOAT", "tensorShape": {"dim": [{"size": "1"}, {"size": "1"}, {"size": "128"}, {"size": "64"}]}}}, "dtype": {"type": "DT_FLOAT"}}}, {"name": "StatefulPartitionedCall/transpose_53/perm", "op": "Const", "attr": {"value": {"tensor": {"dtype": "DT_INT32", "tensorShape": {"dim": [{"size": "4"}]}}}, "dtype": {"type": "DT_INT32"}}}, {"name": "StatefulPartitionedCall/onnx_tf_prefix_Concat_94/axis", "op": "Const", "attr": {"value": {"tensor": {"dtype": "DT_INT32", "tensorShape": {}}}, "dtype": {"type": "DT_INT32"}}}, {"name": "StatefulPartitionedCall/onnx_tf_prefix_BatchNormalization_95/mul", "op": "Const", "attr": {"value": {"tensor": {"dtype": "DT_FLOAT", "tensorShape": {"dim": [{"size": "1"}, {"size": "128"}, {"size": "1"}, {"size": "1"}]}}}, "dtype": {"type": "DT_FLOAT"}}}, {"name": "StatefulPartitionedCall/onnx_tf_prefix_BatchNormalization_95/sub", "op": "Const", "attr": {"value": {"tensor": {"dtype": "DT_FLOAT", "tensorShape": {"dim": [{"size": "1"}, {"size": "128"}, {"size": "1"}, {"size": "1"}]}}}, "dtype": {"type": "DT_FLOAT"}}}, {"name": "StatefulPartitionedCall/transpose_55/perm", "op": "Const", "attr": {"value": {"tensor": {"dtype": "DT_INT32", "tensorShape": {"dim": [{"size": "4"}]}}}, "dtype": {"type": "DT_INT32"}}}, {"name": "StatefulPartitionedCall/split_18", "op": "Const", "attr": {"value": {"tensor": {"dtype": "DT_FLOAT", "tensorShape": {"dim": [{"size": "1"}, {"size": "1"}, {"size": "128"}, {"size": "128"}]}}}, "dtype": {"type": "DT_FLOAT"}}}, {"name": "unknown_40", "op": "Const", "attr": {"value": {"tensor": {"dtype": "DT_FLOAT", "tensorShape": {"dim": [{"size": "128"}]}}}, "dtype": {"type": "DT_FLOAT"}}}, {"name": "StatefulPartitionedCall/transpose_56/perm", "op": "Const", "attr": {"value": {"tensor": {"dtype": "DT_INT32", "tensorShape": {"dim": [{"size": "4"}]}}}, "dtype": {"type": "DT_INT32"}}}, {"name": "StatefulPartitionedCall/Const_50", "op": "Const", "attr": {"value": {"tensor": {"dtype": "DT_INT32", "tensorShape": {"dim": [{"size": "4"}, {"size": "2"}]}}}, "dtype": {"type": "DT_INT32"}}}, {"name": "StatefulPartitionedCall/transpose_58/perm", "op": "Const", "attr": {"value": {"tensor": {"dtype": "DT_INT32", "tensorShape": {"dim": [{"size": "4"}]}}}, "dtype": {"type": "DT_INT32"}}}, {"name": "StatefulPartitionedCall/split_19", "op": "Const", "attr": {"value": {"tensor": {"dtype": "DT_FLOAT", "tensorShape": {"dim": [{"size": "3"}, {"size": "3"}, {"size": "128"}, {"size": "256"}]}}}, "dtype": {"type": "DT_FLOAT"}}}, {"name": "unknown_42", "op": "Const", "attr": {"value": {"tensor": {"dtype": "DT_FLOAT", "tensorShape": {"dim": [{"size": "256"}]}}}, "dtype": {"type": "DT_FLOAT"}}}, {"name": "StatefulPartitionedCall/transpose_59/perm", "op": "Const", "attr": {"value": {"tensor": {"dtype": "DT_INT32", "tensorShape": {"dim": [{"size": "4"}]}}}, "dtype": {"type": "DT_INT32"}}}, {"name": "StatefulPartitionedCall/transpose_85/perm", "op": "Const", "attr": {"value": {"tensor": {"dtype": "DT_INT32", "tensorShape": {"dim": [{"size": "4"}]}}}, "dtype": {"type": "DT_INT32"}}}, {"name": "StatefulPartitionedCall/split_28", "op": "Const", "attr": {"value": {"tensor": {"dtype": "DT_FLOAT", "tensorShape": {"dim": [{"size": "1"}, {"size": "1"}, {"size": "256"}, {"size": "128"}]}}}, "dtype": {"type": "DT_FLOAT"}}}, {"name": "StatefulPartitionedCall/transpose_86/perm", "op": "Const", "attr": {"value": {"tensor": {"dtype": "DT_INT32", "tensorShape": {"dim": [{"size": "4"}]}}}, "dtype": {"type": "DT_INT32"}}}, {"name": "StatefulPartitionedCall/onnx_tf_prefix_Concat_129/axis", "op": "Const", "attr": {"dtype": {"type": "DT_INT32"}, "value": {"tensor": {"dtype": "DT_INT32", "tensorShape": {}}}}}, {"name": "StatefulPartitionedCall/onnx_tf_prefix_BatchNormalization_130/mul", "op": "Const", "attr": {"value": {"tensor": {"dtype": "DT_FLOAT", "tensorShape": {"dim": [{"size": "1"}, {"size": "256"}, {"size": "1"}, {"size": "1"}]}}}, "dtype": {"type": "DT_FLOAT"}}}, {"name": "StatefulPartitionedCall/onnx_tf_prefix_BatchNormalization_130/sub", "op": "Const", "attr": {"dtype": {"type": "DT_FLOAT"}, "value": {"tensor": {"dtype": "DT_FLOAT", "tensorShape": {"dim": [{"size": "1"}, {"size": "256"}, {"size": "1"}, {"size": "1"}]}}}}}, {"name": "StatefulPartitionedCall/transpose_88/perm", "op": "Const", "attr": {"value": {"tensor": {"dtype": "DT_INT32", "tensorShape": {"dim": [{"size": "4"}]}}}, "dtype": {"type": "DT_INT32"}}}, {"name": "StatefulPartitionedCall/split_29", "op": "Const", "attr": {"value": {"tensor": {"dtype": "DT_FLOAT", "tensorShape": {"dim": [{"size": "1"}, {"size": "1"}, {"size": "256"}, {"size": "256"}]}}}, "dtype": {"type": "DT_FLOAT"}}}, {"name": "unknown_64", "op": "Const", "attr": {"dtype": {"type": "DT_FLOAT"}, "value": {"tensor": {"dtype": "DT_FLOAT", "tensorShape": {"dim": [{"size": "256"}]}}}}}, {"name": "StatefulPartitionedCall/transpose_89/perm", "op": "Const", "attr": {"value": {"tensor": {"dtype": "DT_INT32", "tensorShape": {"dim": [{"size": "4"}]}}}, "dtype": {"type": "DT_INT32"}}}, {"name": "StatefulPartitionedCall/Const_65", "op": "Const", "attr": {"value": {"tensor": {"dtype": "DT_INT32", "tensorShape": {"dim": [{"size": "4"}, {"size": "2"}]}}}, "dtype": {"type": "DT_INT32"}}}, {"name": "StatefulPartitionedCall/transpose_91/perm", "op": "Const", "attr": {"value": {"tensor": {"dtype": "DT_INT32", "tensorShape": {"dim": [{"size": "4"}]}}}, "dtype": {"type": "DT_INT32"}}}, {"name": "StatefulPartitionedCall/split_30", "op": "Const", "attr": {"value": {"tensor": {"dtype": "DT_FLOAT", "tensorShape": {"dim": [{"size": "3"}, {"size": "3"}, {"size": "256"}, {"size": "512"}]}}}, "dtype": {"type": "DT_FLOAT"}}}, {"name": "unknown_66", "op": "Const", "attr": {"value": {"tensor": {"dtype": "DT_FLOAT", "tensorShape": {"dim": [{"size": "512"}]}}}, "dtype": {"type": "DT_FLOAT"}}}, {"name": "StatefulPartitionedCall/transpose_92/perm", "op": "Const", "attr": {"value": {"tensor": {"dtype": "DT_INT32", "tensorShape": {"dim": [{"size": "4"}]}}}, "dtype": {"type": "DT_INT32"}}}, {"name": "StatefulPartitionedCall/transpose_94/perm", "op": "Const", "attr": {"value": {"tensor": {"dtype": "DT_INT32", "tensorShape": {"dim": [{"size": "4"}]}}}, "dtype": {"type": "DT_INT32"}}}, {"name": "StatefulPartitionedCall/split_31", "op": "Const", "attr": {"value": {"tensor": {"dtype": "DT_FLOAT", "tensorShape": {"dim": [{"size": "1"}, {"size": "1"}, {"size": "512"}, {"size": "256"}]}}}, "dtype": {"type": "DT_FLOAT"}}}, {"name": "unknown_68", "op": "Const", "attr": {"dtype": {"type": "DT_FLOAT"}, "value": {"tensor": {"dtype": "DT_FLOAT", "tensorShape": {"dim": [{"size": "256"}]}}}}}, {"name": "StatefulPartitionedCall/transpose_95/perm", "op": "Const", "attr": {"value": {"tensor": {"dtype": "DT_INT32", "tensorShape": {"dim": [{"size": "4"}]}}}, "dtype": {"type": "DT_INT32"}}}, {"name": "StatefulPartitionedCall/transpose_100/perm", "op": "Const", "attr": {"value": {"tensor": {"dtype": "DT_INT32", "tensorShape": {"dim": [{"size": "4"}]}}}, "dtype": {"type": "DT_INT32"}}}, {"name": "StatefulPartitionedCall/transpose_101/perm", "op": "Const", "attr": {"value": {"tensor": {"dtype": "DT_INT32", "tensorShape": {"dim": [{"size": "4"}]}}}, "dtype": {"type": "DT_INT32"}}}, {"name": "StatefulPartitionedCall/onnx_tf_prefix_Concat_144/axis", "op": "Const", "attr": {"value": {"tensor": {"dtype": "DT_INT32", "tensorShape": {}}}, "dtype": {"type": "DT_INT32"}}}, {"name": "StatefulPartitionedCall/transpose_103/perm", "op": "Const", "attr": {"dtype": {"type": "DT_INT32"}, "value": {"tensor": {"dtype": "DT_INT32", "tensorShape": {"dim": [{"size": "4"}]}}}}}, {"name": "StatefulPartitionedCall/split_32", "op": "Const", "attr": {"dtype": {"type": "DT_FLOAT"}, "value": {"tensor": {"dtype": "DT_FLOAT", "tensorShape": {"dim": [{"size": "1"}, {"size": "1"}, {"size": "1024"}, {"size": "512"}]}}}}}, {"name": "unknown_70", "op": "Const", "attr": {"value": {"tensor": {"dtype": "DT_FLOAT", "tensorShape": {"dim": [{"size": "512"}]}}}, "dtype": {"type": "DT_FLOAT"}}}, {"name": "StatefulPartitionedCall/transpose_104/perm", "op": "Const", "attr": {"value": {"tensor": {"dtype": "DT_INT32", "tensorShape": {"dim": [{"size": "4"}]}}}, "dtype": {"type": "DT_INT32"}}}, {"name": "StatefulPartitionedCall/transpose_118/perm", "op": "Const", "attr": {"value": {"tensor": {"dtype": "DT_INT32", "tensorShape": {"dim": [{"size": "4"}]}}}, "dtype": {"type": "DT_INT32"}}}, {"name": "StatefulPartitionedCall/split_37", "op": "Const", "attr": {"value": {"tensor": {"dtype": "DT_FLOAT", "tensorShape": {"dim": [{"size": "1"}, {"size": "1"}, {"size": "512"}, {"size": "256"}]}}}, "dtype": {"type": "DT_FLOAT"}}}, {"name": "StatefulPartitionedCall/transpose_119/perm", "op": "Const", "attr": {"value": {"tensor": {"dtype": "DT_INT32", "tensorShape": {"dim": [{"size": "4"}]}}}, "dtype": {"type": "DT_INT32"}}}, {"name": "StatefulPartitionedCall/onnx_tf_prefix_Concat_159/axis", "op": "Const", "attr": {"value": {"tensor": {"dtype": "DT_INT32", "tensorShape": {}}}, "dtype": {"type": "DT_INT32"}}}, {"name": "StatefulPartitionedCall/onnx_tf_prefix_BatchNormalization_160/mul", "op": "Const", "attr": {"value": {"tensor": {"dtype": "DT_FLOAT", "tensorShape": {"dim": [{"size": "1"}, {"size": "512"}, {"size": "1"}, {"size": "1"}]}}}, "dtype": {"type": "DT_FLOAT"}}}, {"name": "StatefulPartitionedCall/onnx_tf_prefix_BatchNormalization_160/sub", "op": "Const", "attr": {"value": {"tensor": {"dtype": "DT_FLOAT", "tensorShape": {"dim": [{"size": "1"}, {"size": "512"}, {"size": "1"}, {"size": "1"}]}}}, "dtype": {"type": "DT_FLOAT"}}}, {"name": "StatefulPartitionedCall/transpose_121/perm", "op": "Const", "attr": {"value": {"tensor": {"dtype": "DT_INT32", "tensorShape": {"dim": [{"size": "4"}]}}}, "dtype": {"type": "DT_INT32"}}}, {"name": "StatefulPartitionedCall/split_38", "op": "Const", "attr": {"value": {"tensor": {"dtype": "DT_FLOAT", "tensorShape": {"dim": [{"size": "1"}, {"size": "1"}, {"size": "512"}, {"size": "512"}]}}}, "dtype": {"type": "DT_FLOAT"}}}, {"name": "unknown_84", "op": "Const", "attr": {"value": {"tensor": {"dtype": "DT_FLOAT", "tensorShape": {"dim": [{"size": "512"}]}}}, "dtype": {"type": "DT_FLOAT"}}}, {"name": "StatefulPartitionedCall/transpose_122/perm", "op": "Const", "attr": {"value": {"tensor": {"dtype": "DT_INT32", "tensorShape": {"dim": [{"size": "4"}]}}}, "dtype": {"type": "DT_INT32"}}}, {"name": "StatefulPartitionedCall/transpose_124/perm", "op": "Const", "attr": {"value": {"tensor": {"dtype": "DT_INT32", "tensorShape": {"dim": [{"size": "4"}]}}}, "dtype": {"type": "DT_INT32"}}}, {"name": "StatefulPartitionedCall/split_39", "op": "Const", "attr": {"value": {"tensor": {"dtype": "DT_FLOAT", "tensorShape": {"dim": [{"size": "1"}, {"size": "1"}, {"size": "512"}, {"size": "256"}]}}}, "dtype": {"type": "DT_FLOAT"}}}, {"name": "unknown_86", "op": "Const", "attr": {"value": {"tensor": {"dtype": "DT_FLOAT", "tensorShape": {"dim": [{"size": "256"}]}}}, "dtype": {"type": "DT_FLOAT"}}}, {"name": "StatefulPartitionedCall/transpose_125/perm", "op": "Const", "attr": {"value": {"tensor": {"dtype": "DT_INT32", "tensorShape": {"dim": [{"size": "4"}]}}}, "dtype": {"type": "DT_INT32"}}}, {"name": "StatefulPartitionedCall/onnx_tf_prefix_Concat_235/axis", "op": "Const", "attr": {"value": {"tensor": {"dtype": "DT_INT32", "tensorShape": {}}}, "dtype": {"type": "DT_INT32"}}}, {"name": "StatefulPartitionedCall/transpose_206/perm", "op": "Const", "attr": {"value": {"tensor": {"dtype": "DT_INT32", "tensorShape": {"dim": [{"size": "4"}]}}}, "dtype": {"type": "DT_INT32"}}}, {"name": "StatefulPartitionedCall/split_65", "op": "Const", "attr": {"value": {"tensor": {"dtype": "DT_FLOAT", "tensorShape": {"dim": [{"size": "1"}, {"size": "1"}, {"size": "512"}, {"size": "256"}]}}}, "dtype": {"type": "DT_FLOAT"}}}, {"name": "StatefulPartitionedCall/transpose_207/perm", "op": "Const", "attr": {"value": {"tensor": {"dtype": "DT_INT32", "tensorShape": {"dim": [{"size": "4"}]}}}, "dtype": {"type": "DT_INT32"}}}, {"name": "StatefulPartitionedCall/onnx_tf_prefix_Concat_247/axis", "op": "Const", "attr": {"value": {"tensor": {"dtype": "DT_INT32", "tensorShape": {}}}, "dtype": {"type": "DT_INT32"}}}, {"name": "StatefulPartitionedCall/onnx_tf_prefix_BatchNormalization_248/mul", "op": "Const", "attr": {"value": {"tensor": {"dtype": "DT_FLOAT", "tensorShape": {"dim": [{"size": "1"}, {"size": "512"}, {"size": "1"}, {"size": "1"}]}}}, "dtype": {"type": "DT_FLOAT"}}}, {"name": "StatefulPartitionedCall/onnx_tf_prefix_BatchNormalization_248/sub", "op": "Const", "attr": {"value": {"tensor": {"dtype": "DT_FLOAT", "tensorShape": {"dim": [{"size": "1"}, {"size": "512"}, {"size": "1"}, {"size": "1"}]}}}, "dtype": {"type": "DT_FLOAT"}}}, {"name": "StatefulPartitionedCall/transpose_209/perm", "op": "Const", "attr": {"value": {"tensor": {"dtype": "DT_INT32", "tensorShape": {"dim": [{"size": "4"}]}}}, "dtype": {"type": "DT_INT32"}}}, {"name": "StatefulPartitionedCall/split_66", "op": "Const", "attr": {"dtype": {"type": "DT_FLOAT"}, "value": {"tensor": {"dtype": "DT_FLOAT", "tensorShape": {"dim": [{"size": "1"}, {"size": "1"}, {"size": "512"}, {"size": "512"}]}}}}}, {"name": "unknown_150", "op": "Const", "attr": {"value": {"tensor": {"dtype": "DT_FLOAT", "tensorShape": {"dim": [{"size": "512"}]}}}, "dtype": {"type": "DT_FLOAT"}}}, {"name": "StatefulPartitionedCall/transpose_210/perm", "op": "Const", "attr": {"value": {"tensor": {"dtype": "DT_INT32", "tensorShape": {"dim": [{"size": "4"}]}}}, "dtype": {"type": "DT_INT32"}}}, {"name": "StatefulPartitionedCall/transpose_218/perm", "op": "Const", "attr": {"value": {"tensor": {"dtype": "DT_INT32", "tensorShape": {"dim": [{"size": "4"}]}}}, "dtype": {"type": "DT_INT32"}}}, {"name": "StatefulPartitionedCall/split_69", "op": "Const", "attr": {"value": {"tensor": {"dtype": "DT_FLOAT", "tensorShape": {"dim": [{"size": "1"}, {"size": "1"}, {"size": "512"}, {"size": "54"}]}}}, "dtype": {"type": "DT_FLOAT"}}}, {"name": "unknown_166", "op": "Const", "attr": {"value": {"tensor": {"dtype": "DT_FLOAT", "tensorShape": {"dim": [{"size": "54"}]}}}, "dtype": {"type": "DT_FLOAT"}}}, {"name": "StatefulPartitionedCall/transpose_219/perm", "op": "Const", "attr": {"value": {"tensor": {"dtype": "DT_INT32", "tensorShape": {"dim": [{"size": "4"}]}}}, "dtype": {"type": "DT_INT32"}}}, {"name": "StatefulPartitionedCall/Cast_54", "op": "Const", "attr": {"value": {"tensor": {"dtype": "DT_INT64", "tensorShape": {"dim": [{"size": "1"}]}}}, "dtype": {"type": "DT_INT64"}}}, {"name": "StatefulPartitionedCall/zeros_18", "op": "Const", "attr": {"value": {"tensor": {"dtype": "DT_INT64", "tensorShape": {}}}, "dtype": {"type": "DT_INT64"}}}, {"name": "StatefulPartitionedCall/onnx_tf_prefix_Transpose_366/perm", "op": "Const", "attr": {"value": {"tensor": {"dtype": "DT_INT32", "tensorShape": {"dim": [{"size": "5"}]}}}, "dtype": {"type": "DT_INT32"}}}, {"name": "StatefulPartitionedCall/SelectV2_65", "op": "Const", "attr": {"value": {"tensor": {"dtype": "DT_INT64", "tensorShape": {"dim": [{"size": "1"}]}}}, "dtype": {"type": "DT_INT64"}}}, {"name": "StatefulPartitionedCall/zeros_21", "op": "Const", "attr": {"value": {"tensor": {"dtype": "DT_INT64", "tensorShape": {}}}, "dtype": {"type": "DT_INT64"}}}, {"name": "StatefulPartitionedCall/Const_145", "op": "Const", "attr": {"value": {"tensor": {"dtype": "DT_INT64", "tensorShape": {}}}, "dtype": {"type": "DT_INT64"}}}, {"name": "StatefulPartitionedCall/Shape_26", "op": "Const", "attr": {"dtype": {"type": "DT_INT64"}, "value": {"tensor": {"dtype": "DT_INT64", "tensorShape": {"dim": [{"size": "5"}]}}}}}, {"name": "StatefulPartitionedCall/SelectV2_66", "op": "Const", "attr": {"value": {"tensor": {"dtype": "DT_INT64", "tensorShape": {"dim": [{"size": "1"}]}}}, "dtype": {"type": "DT_INT64"}}}, {"name": "StatefulPartitionedCall/Const_144", "op": "Const", "attr": {"value": {"tensor": {"dtype": "DT_INT64", "tensorShape": {}}}, "dtype": {"type": "DT_INT64"}}}, {"name": "StatefulPartitionedCall/ExpandDims_16", "op": "Const", "attr": {"value": {"tensor": {"dtype": "DT_INT64", "tensorShape": {"dim": [{"size": "1"}, {"size": "1"}]}}}, "dtype": {"type": "DT_INT64"}}}, {"name": "StatefulPartitionedCall/Cast_60", "op": "Const", "attr": {"value": {"tensor": {"dtype": "DT_INT64", "tensorShape": {"dim": [{"size": "1"}]}}}, "dtype": {"type": "DT_INT64"}}}, {"name": "StatefulPartitionedCall/onnx_tf_prefix_Constant_394", "op": "Const", "attr": {"value": {"tensor": {"dtype": "DT_INT64", "tensorShape": {"dim": [{"size": "1"}]}}}, "dtype": {"type": "DT_INT64"}}}, {"name": "StatefulPartitionedCall/Const_146", "op": "Const", "attr": {"value": {"tensor": {"dtype": "DT_INT64", "tensorShape": {}}}, "dtype": {"type": "DT_INT64"}}}, {"name": "StatefulPartitionedCall/onnx_tf_prefix_Concat_396/axis", "op": "Const", "attr": {"dtype": {"type": "DT_INT32"}, "value": {"tensor": {"dtype": "DT_INT32", "tensorShape": {}}}}}, {"name": "StatefulPartitionedCall/Cast_61", "op": "Const", "attr": {"value": {"tensor": {"dtype": "DT_INT64", "tensorShape": {"dim": [{"size": "1"}]}}}, "dtype": {"type": "DT_INT64"}}}, {"name": "StatefulPartitionedCall/zeros_22", "op": "Const", "attr": {"dtype": {"type": "DT_INT64"}, "value": {"tensor": {"dtype": "DT_INT64", "tensorShape": {}}}}}, {"name": "StatefulPartitionedCall/onnx_tf_prefix_Concat_400/axis", "op": "Const", "attr": {"value": {"tensor": {"dtype": "DT_INT32", "tensorShape": {}}}, "dtype": {"type": "DT_INT32"}}}, {"name": "StatefulPartitionedCall/LogicalAnd_8", "op": "Const", "attr": {"dtype": {"type": "DT_BOOL"}, "value": {"tensor": {"dtype": "DT_BOOL", "tensorShape": {}}}}}, {"name": "StatefulPartitionedCall/assert_equal_17/y", "op": "Const", "attr": {"value": {"tensor": {"dtype": "DT_BOOL", "tensorShape": {}}}, "dtype": {"type": "DT_BOOL"}}}, {"name": "StatefulPartitionedCall/assert_equal_17/All", "op": "Const", "attr": {"value": {"tensor": {"dtype": "DT_BOOL", "tensorShape": {}}}, "dtype": {"type": "DT_BOOL"}}}, {"name": "StatefulPartitionedCall/LogicalAnd_7", "op": "Const", "attr": {"value": {"tensor": {"dtype": "DT_BOOL", "tensorShape": {}}}, "dtype": {"type": "DT_BOOL"}}}, {"name": "StatefulPartitionedCall/assert_equal_15/y", "op": "Const", "attr": {"value": {"tensor": {"dtype": "DT_BOOL", "tensorShape": {}}}, "dtype": {"type": "DT_BOOL"}}}, {"name": "StatefulPartitionedCall/assert_equal_15/All", "op": "Const", "attr": {"value": {"tensor": {"dtype": "DT_BOOL", "tensorShape": {}}}, "dtype": {"type": "DT_BOOL"}}}, {"name": "StatefulPartitionedCall/LogicalAnd_6", "op": "Const", "attr": {"value": {"tensor": {"dtype": "DT_BOOL", "tensorShape": {}}}, "dtype": {"type": "DT_BOOL"}}}, {"name": "StatefulPartitionedCall/assert_equal_13/y", "op": "Const", "attr": {"value": {"tensor": {"dtype": "DT_BOOL", "tensorShape": {}}}, "dtype": {"type": "DT_BOOL"}}}, {"name": "StatefulPartitionedCall/assert_equal_13/All", "op": "Const", "attr": {"value": {"tensor": {"dtype": "DT_BOOL", "tensorShape": {}}}, "dtype": {"type": "DT_BOOL"}}}, {"name": "StatefulPartitionedCall/LogicalAnd_5", "op": "Const", "attr": {"value": {"tensor": {"dtype": "DT_BOOL", "tensorShape": {}}}, "dtype": {"type": "DT_BOOL"}}}, {"name": "StatefulPartitionedCall/assert_equal_11/y", "op": "Const", "attr": {"value": {"tensor": {"dtype": "DT_BOOL", "tensorShape": {}}}, "dtype": {"type": "DT_BOOL"}}}, {"name": "StatefulPartitionedCall/assert_equal_11/All", "op": "Const", "attr": {"value": {"tensor": {"dtype": "DT_BOOL", "tensorShape": {}}}, "dtype": {"type": "DT_BOOL"}}}, {"name": "StatefulPartitionedCall/LogicalAnd_4", "op": "Const", "attr": {"value": {"tensor": {"dtype": "DT_BOOL", "tensorShape": {}}}, "dtype": {"type": "DT_BOOL"}}}, {"name": "StatefulPartitionedCall/assert_equal_9/y", "op": "Const", "attr": {"value": {"tensor": {"dtype": "DT_BOOL", "tensorShape": {}}}, "dtype": {"type": "DT_BOOL"}}}, {"name": "StatefulPartitionedCall/assert_equal_9/All", "op": "Const", "attr": {"value": {"tensor": {"dtype": "DT_BOOL", "tensorShape": {}}}, "dtype": {"type": "DT_BOOL"}}}, {"name": "StatefulPartitionedCall/LogicalAnd_3", "op": "Const", "attr": {"value": {"tensor": {"dtype": "DT_BOOL", "tensorShape": {}}}, "dtype": {"type": "DT_BOOL"}}}, {"name": "StatefulPartitionedCall/assert_equal_7/y", "op": "Const", "attr": {"value": {"tensor": {"dtype": "DT_BOOL", "tensorShape": {}}}, "dtype": {"type": "DT_BOOL"}}}, {"name": "StatefulPartitionedCall/assert_equal_7/All", "op": "Const", "attr": {"value": {"tensor": {"dtype": "DT_BOOL", "tensorShape": {}}}, "dtype": {"type": "DT_BOOL"}}}, {"name": "StatefulPartitionedCall/LogicalAnd_2", "op": "Const", "attr": {"value": {"tensor": {"dtype": "DT_BOOL", "tensorShape": {}}}, "dtype": {"type": "DT_BOOL"}}}, {"name": "StatefulPartitionedCall/assert_equal_5/y", "op": "Const", "attr": {"value": {"tensor": {"dtype": "DT_BOOL", "tensorShape": {}}}, "dtype": {"type": "DT_BOOL"}}}, {"name": "StatefulPartitionedCall/assert_equal_5/All", "op": "Const", "attr": {"value": {"tensor": {"dtype": "DT_BOOL", "tensorShape": {}}}, "dtype": {"type": "DT_BOOL"}}}, {"name": "StatefulPartitionedCall/LogicalAnd_1", "op": "Const", "attr": {"value": {"tensor": {"dtype": "DT_BOOL", "tensorShape": {}}}, "dtype": {"type": "DT_BOOL"}}}, {"name": "StatefulPartitionedCall/assert_equal_3/y", "op": "Const", "attr": {"value": {"tensor": {"dtype": "DT_BOOL", "tensorShape": {}}}, "dtype": {"type": "DT_BOOL"}}}, {"name": "StatefulPartitionedCall/assert_equal_3/All", "op": "Const", "attr": {"value": {"tensor": {"dtype": "DT_BOOL", "tensorShape": {}}}, "dtype": {"type": "DT_BOOL"}}}, {"name": "StatefulPartitionedCall/assert_equal_1/Assert/AssertGuard/pivot_t/_183", "op": "Const", "attr": {"value": {"tensor": {"dtype": "DT_BOOL", "tensorShape": {}}}, "dtype": {"type": "DT_BOOL"}}}, {"name": "StatefulPartitionedCall/LogicalAnd", "op": "Const", "attr": {"value": {"tensor": {"dtype": "DT_BOOL", "tensorShape": {}}}, "dtype": {"type": "DT_BOOL"}}}, {"name": "StatefulPartitionedCall/assert_equal_1/y", "op": "Const", "attr": {"value": {"tensor": {"dtype": "DT_BOOL", "tensorShape": {}}}, "dtype": {"type": "DT_BOOL"}}}, {"name": "StatefulPartitionedCall/assert_equal_1/All", "op": "Const", "attr": {"value": {"tensor": {"dtype": "DT_BOOL", "tensorShape": {}}}, "dtype": {"type": "DT_BOOL"}}}, {"name": "images", "op": "Placeholder", "attr": {"dtype": {"type": "DT_FLOAT"}, "shape": {"shape": {"dim": [{"size": "1"}, {"size": "3"}, {"size": "416"}, {"size": "416"}]}}}}, {"name": "StatefulPartitionedCall/SparseToDense_25", "op": "SparseToDense", "input": ["StatefulPartitionedCall/ExpandDims_8", "StatefulPartitionedCall/Cast_28", "StatefulPartitionedCall/SelectV2_33", "StatefulPartitionedCall/zeros_9"], "attr": {"Tindices": {"type": "DT_INT64"}, "validate_indices": {"b": true}, "T": {"type": "DT_INT64"}}}, {"name": "StatefulPartitionedCall/SparseToDense_26", "op": "SparseToDense", "input": ["StatefulPartitionedCall/ExpandDims_8", "StatefulPartitionedCall/Cast_28", "StatefulPartitionedCall/SelectV2_34", "StatefulPartitionedCall/Const_114"], "attr": {"Tindices": {"type": "DT_INT64"}, "validate_indices": {"b": true}, "T": {"type": "DT_INT64"}}}, {"name": "StatefulPartitionedCall/SparseToDense_27", "op": "SparseToDense", "input": ["StatefulPartitionedCall/ExpandDims_8", "StatefulPartitionedCall/Cast_28", "StatefulPartitionedCall/onnx_tf_prefix_Constant_273", "StatefulPartitionedCall/Const_116"], "attr": {"Tindices": {"type": "DT_INT64"}, "validate_indices": {"b": true}, "T": {"type": "DT_INT64"}}}, {"name": "StatefulPartitionedCall/SparseToDense_28", "op": "SparseToDense", "input": ["StatefulPartitionedCall/ExpandDims_9", "StatefulPartitionedCall/Cast_30", "StatefulPartitionedCall/SelectV2_37", "StatefulPartitionedCall/zeros_10"], "attr": {"Tindices": {"type": "DT_INT64"}, "validate_indices": {"b": true}, "T": {"type": "DT_INT64"}}}, {"name": "StatefulPartitionedCall/SparseToDense_29", "op": "SparseToDense", "input": ["StatefulPartitionedCall/ExpandDims_9", "StatefulPartitionedCall/Cast_30", "StatefulPartitionedCall/SelectV2_38", "StatefulPartitionedCall/Const_117"], "attr": {"Tindices": {"type": "DT_INT64"}, "validate_indices": {"b": true}, "T": {"type": "DT_INT64"}}}, {"name": "StatefulPartitionedCall/SparseToDense_30", "op": "SparseToDense", "input": ["StatefulPartitionedCall/ExpandDims_9", "StatefulPartitionedCall/Cast_30", "StatefulPartitionedCall/onnx_tf_prefix_Constant_286", "StatefulPartitionedCall/Const_119"], "attr": {"validate_indices": {"b": true}, "T": {"type": "DT_INT64"}, "Tindices": {"type": "DT_INT64"}}}, {"name": "StatefulPartitionedCall/SparseToDense_31", "op": "SparseToDense", "input": ["StatefulPartitionedCall/ExpandDims_10", "StatefulPartitionedCall/Cast_32", "StatefulPartitionedCall/SelectV2_41", "StatefulPartitionedCall/zeros_11"], "attr": {"Tindices": {"type": "DT_INT64"}, "validate_indices": {"b": true}, "T": {"type": "DT_INT64"}}}, {"name": "StatefulPartitionedCall/SparseToDense_32", "op": "SparseToDense", "input": ["StatefulPartitionedCall/ExpandDims_10", "StatefulPartitionedCall/Cast_32", "StatefulPartitionedCall/SelectV2_42", "StatefulPartitionedCall/Const_120"], "attr": {"validate_indices": {"b": true}, "T": {"type": "DT_INT64"}, "Tindices": {"type": "DT_INT64"}}}, {"name": "StatefulPartitionedCall/SparseToDense_33", "op": "SparseToDense", "input": ["StatefulPartitionedCall/ExpandDims_10", "StatefulPartitionedCall/Cast_32", "StatefulPartitionedCall/onnx_tf_prefix_Constant_296", "StatefulPartitionedCall/Const_122"], "attr": {"validate_indices": {"b": true}, "T": {"type": "DT_INT64"}, "Tindices": {"type": "DT_INT64"}}}, {"name": "StatefulPartitionedCall/SparseToDense_36", "op": "SparseToDense", "input": ["StatefulPartitionedCall/ExpandDims_11", "StatefulPartitionedCall/Cast_42", "StatefulPartitionedCall/SelectV2_45", "StatefulPartitionedCall/zeros_14"], "attr": {"Tindices": {"type": "DT_INT64"}, "validate_indices": {"b": true}, "T": {"type": "DT_INT64"}}}, {"name": "StatefulPartitionedCall/SparseToDense_37", "op": "SparseToDense", "input": ["StatefulPartitionedCall/ExpandDims_11", "StatefulPartitionedCall/Cast_42", "StatefulPartitionedCall/SelectV2_46", "StatefulPartitionedCall/Const_126"], "attr": {"Tindices": {"type": "DT_INT64"}, "validate_indices": {"b": true}, "T": {"type": "DT_INT64"}}}, {"name": "StatefulPartitionedCall/SparseToDense_38", "op": "SparseToDense", "input": ["StatefulPartitionedCall/ExpandDims_11", "StatefulPartitionedCall/Cast_42", "StatefulPartitionedCall/onnx_tf_prefix_Constant_322", "StatefulPartitionedCall/Const_128"], "attr": {"Tindices": {"type": "DT_INT64"}, "validate_indices": {"b": true}, "T": {"type": "DT_INT64"}}}, {"name": "StatefulPartitionedCall/SparseToDense_39", "op": "SparseToDense", "input": ["StatefulPartitionedCall/ExpandDims_12", "StatefulPartitionedCall/Cast_44", "StatefulPartitionedCall/SelectV2_49", "StatefulPartitionedCall/zeros_15"], "attr": {"Tindices": {"type": "DT_INT64"}, "validate_indices": {"b": true}, "T": {"type": "DT_INT64"}}}, {"name": "StatefulPartitionedCall/SparseToDense_40", "op": "SparseToDense", "input": ["StatefulPartitionedCall/ExpandDims_12", "StatefulPartitionedCall/Cast_44", "StatefulPartitionedCall/SelectV2_50", "StatefulPartitionedCall/Const_129"], "attr": {"Tindices": {"type": "DT_INT64"}, "validate_indices": {"b": true}, "T": {"type": "DT_INT64"}}}, {"name": "StatefulPartitionedCall/SparseToDense_41", "op": "SparseToDense", "input": ["StatefulPartitionedCall/ExpandDims_12", "StatefulPartitionedCall/Cast_44", "StatefulPartitionedCall/onnx_tf_prefix_Constant_335", "StatefulPartitionedCall/Const_131"], "attr": {"Tindices": {"type": "DT_INT64"}, "validate_indices": {"b": true}, "T": {"type": "DT_INT64"}}}, {"name": "StatefulPartitionedCall/SparseToDense_42", "op": "SparseToDense", "input": ["StatefulPartitionedCall/ExpandDims_13", "StatefulPartitionedCall/Cast_46", "StatefulPartitionedCall/SelectV2_53", "StatefulPartitionedCall/zeros_16"], "attr": {"Tindices": {"type": "DT_INT64"}, "validate_indices": {"b": true}, "T": {"type": "DT_INT64"}}}, {"name": "StatefulPartitionedCall/SparseToDense_43", "op": "SparseToDense", "input": ["StatefulPartitionedCall/ExpandDims_13", "StatefulPartitionedCall/Cast_46", "StatefulPartitionedCall/SelectV2_54", "StatefulPartitionedCall/Const_132"], "attr": {"validate_indices": {"b": true}, "T": {"type": "DT_INT64"}, "Tindices": {"type": "DT_INT64"}}}, {"name": "StatefulPartitionedCall/SparseToDense_44", "op": "SparseToDense", "input": ["StatefulPartitionedCall/ExpandDims_13", "StatefulPartitionedCall/Cast_46", "StatefulPartitionedCall/onnx_tf_prefix_Constant_345", "StatefulPartitionedCall/Const_134"], "attr": {"Tindices": {"type": "DT_INT64"}, "validate_indices": {"b": true}, "T": {"type": "DT_INT64"}}}, {"name": "StatefulPartitionedCall/SparseToDense_47", "op": "SparseToDense", "input": ["StatefulPartitionedCall/ExpandDims_14", "StatefulPartitionedCall/Cast_56", "StatefulPartitionedCall/SelectV2_57", "StatefulPartitionedCall/zeros_19"], "attr": {"Tindices": {"type": "DT_INT64"}, "validate_indices": {"b": true}, "T": {"type": "DT_INT64"}}}, {"name": "StatefulPartitionedCall/SparseToDense_48", "op": "SparseToDense", "input": ["StatefulPartitionedCall/ExpandDims_14", "StatefulPartitionedCall/Cast_56", "StatefulPartitionedCall/SelectV2_58", "StatefulPartitionedCall/Const_138"], "attr": {"Tindices": {"type": "DT_INT64"}, "validate_indices": {"b": true}, "T": {"type": "DT_INT64"}}}, {"name": "StatefulPartitionedCall/SparseToDense_49", "op": "SparseToDense", "input": ["StatefulPartitionedCall/ExpandDims_14", "StatefulPartitionedCall/Cast_56", "StatefulPartitionedCall/onnx_tf_prefix_Constant_371", "StatefulPartitionedCall/Const_140"], "attr": {"Tindices": {"type": "DT_INT64"}, "validate_indices": {"b": true}, "T": {"type": "DT_INT64"}}}, {"name": "StatefulPartitionedCall/SparseToDense_50", "op": "SparseToDense", "input": ["StatefulPartitionedCall/ExpandDims_15", "StatefulPartitionedCall/Cast_58", "StatefulPartitionedCall/SelectV2_61", "StatefulPartitionedCall/zeros_20"], "attr": {"Tindices": {"type": "DT_INT64"}, "validate_indices": {"b": true}, "T": {"type": "DT_INT64"}}}, {"name": "StatefulPartitionedCall/SparseToDense_51", "op": "SparseToDense", "input": ["StatefulPartitionedCall/ExpandDims_15", "StatefulPartitionedCall/Cast_58", "StatefulPartitionedCall/SelectV2_62", "StatefulPartitionedCall/Const_141"], "attr": {"Tindices": {"type": "DT_INT64"}, "validate_indices": {"b": true}, "T": {"type": "DT_INT64"}}}, {"name": "StatefulPartitionedCall/SparseToDense_52", "op": "SparseToDense", "input": ["StatefulPartitionedCall/ExpandDims_15", "StatefulPartitionedCall/Cast_58", "StatefulPartitionedCall/onnx_tf_prefix_Constant_384", "StatefulPartitionedCall/Const_143"], "attr": {"validate_indices": {"b": true}, "T": {"type": "DT_INT64"}, "Tindices": {"type": "DT_INT64"}}}, {"name": "StatefulPartitionedCall/SparseToDense", "op": "SparseToDense", "input": ["StatefulPartitionedCall/ExpandDims", "StatefulPartitionedCall/Cast_1", "StatefulPartitionedCall/SelectV2_1", "StatefulPartitionedCall/zeros"], "attr": {"Tindices": {"type": "DT_INT64"}, "validate_indices": {"b": true}, "T": {"type": "DT_INT64"}}}, {"name": "StatefulPartitionedCall/SparseToDense_1", "op": "SparseToDense", "input": ["StatefulPartitionedCall/ExpandDims", "StatefulPartitionedCall/Cast_1", "StatefulPartitionedCall/SelectV2_2", "StatefulPartitionedCall/Const"], "attr": {"Tindices": {"type": "DT_INT64"}, "validate_indices": {"b": true}, "T": {"type": "DT_INT64"}}}, {"name": "StatefulPartitionedCall/SparseToDense_2", "op": "SparseToDense", "input": ["StatefulPartitionedCall/ExpandDims", "StatefulPartitionedCall/Cast_1", "StatefulPartitionedCall/onnx_tf_prefix_Constant_3", "StatefulPartitionedCall/Const_2"], "attr": {"Tindices": {"type": "DT_INT64"}, "validate_indices": {"b": true}, "T": {"type": "DT_INT64"}}}, {"name": "StatefulPartitionedCall/SparseToDense_3", "op": "SparseToDense", "input": ["StatefulPartitionedCall/ExpandDims_1", "StatefulPartitionedCall/Cast_3", "StatefulPartitionedCall/SelectV2_5", "StatefulPartitionedCall/zeros_1"], "attr": {"Tindices": {"type": "DT_INT64"}, "validate_indices": {"b": true}, "T": {"type": "DT_INT64"}}}, {"name": "StatefulPartitionedCall/SparseToDense_4", "op": "SparseToDense", "input": ["StatefulPartitionedCall/ExpandDims_1", "StatefulPartitionedCall/Cast_3", "StatefulPartitionedCall/SelectV2_6", "StatefulPartitionedCall/Const_3"], "attr": {"Tindices": {"type": "DT_INT64"}, "validate_indices": {"b": true}, "T": {"type": "DT_INT64"}}}, {"name": "StatefulPartitionedCall/SparseToDense_5", "op": "SparseToDense", "input": ["StatefulPartitionedCall/ExpandDims_1", "StatefulPartitionedCall/Cast_3", "StatefulPartitionedCall/onnx_tf_prefix_Constant_8", "StatefulPartitionedCall/Const_5"], "attr": {"Tindices": {"type": "DT_INT64"}, "validate_indices": {"b": true}, "T": {"type": "DT_INT64"}}}, {"name": "StatefulPartitionedCall/SparseToDense_6", "op": "SparseToDense", "input": ["StatefulPartitionedCall/ExpandDims_2", "StatefulPartitionedCall/Cast_5", "StatefulPartitionedCall/SelectV2_9", "StatefulPartitionedCall/zeros_2"], "attr": {"validate_indices": {"b": true}, "T": {"type": "DT_INT64"}, "Tindices": {"type": "DT_INT64"}}}, {"name": "StatefulPartitionedCall/SparseToDense_7", "op": "SparseToDense", "input": ["StatefulPartitionedCall/ExpandDims_2", "StatefulPartitionedCall/Cast_5", "StatefulPartitionedCall/SelectV2_10", "StatefulPartitionedCall/Const_6"], "attr": {"Tindices": {"type": "DT_INT64"}, "validate_indices": {"b": true}, "T": {"type": "DT_INT64"}}}, {"name": "StatefulPartitionedCall/SparseToDense_8", "op": "SparseToDense", "input": ["StatefulPartitionedCall/ExpandDims_2", "StatefulPartitionedCall/Cast_5", "StatefulPartitionedCall/onnx_tf_prefix_Constant_13", "StatefulPartitionedCall/Const_8"], "attr": {"Tindices": {"type": "DT_INT64"}, "validate_indices": {"b": true}, "T": {"type": "DT_INT64"}}}, {"name": "StatefulPartitionedCall/SparseToDense_9", "op": "SparseToDense", "input": ["StatefulPartitionedCall/ExpandDims_3", "StatefulPartitionedCall/Cast_7", "StatefulPartitionedCall/SelectV2_13", "StatefulPartitionedCall/zeros_3"], "attr": {"Tindices": {"type": "DT_INT64"}, "validate_indices": {"b": true}, "T": {"type": "DT_INT64"}}}, {"name": "StatefulPartitionedCall/SparseToDense_10", "op": "SparseToDense", "input": ["StatefulPartitionedCall/ExpandDims_3", "StatefulPartitionedCall/Cast_7", "StatefulPartitionedCall/SelectV2_14", "StatefulPartitionedCall/Const_9"], "attr": {"Tindices": {"type": "DT_INT64"}, "validate_indices": {"b": true}, "T": {"type": "DT_INT64"}}}, {"name": "StatefulPartitionedCall/SparseToDense_11", "op": "SparseToDense", "input": ["StatefulPartitionedCall/ExpandDims_3", "StatefulPartitionedCall/Cast_7", "StatefulPartitionedCall/onnx_tf_prefix_Constant_18", "StatefulPartitionedCall/Const_11"], "attr": {"Tindices": {"type": "DT_INT64"}, "validate_indices": {"b": true}, "T": {"type": "DT_INT64"}}}, {"name": "StatefulPartitionedCall/SparseToDense_12", "op": "SparseToDense", "input": ["StatefulPartitionedCall/ExpandDims_4", "StatefulPartitionedCall/Cast_9", "StatefulPartitionedCall/SelectV2_17", "StatefulPartitionedCall/zeros_4"], "attr": {"Tindices": {"type": "DT_INT64"}, "validate_indices": {"b": true}, "T": {"type": "DT_INT64"}}}, {"name": "StatefulPartitionedCall/SparseToDense_13", "op": "SparseToDense", "input": ["StatefulPartitionedCall/ExpandDims_4", "StatefulPartitionedCall/Cast_9", "StatefulPartitionedCall/SelectV2_18", "StatefulPartitionedCall/Const_12"], "attr": {"Tindices": {"type": "DT_INT64"}, "validate_indices": {"b": true}, "T": {"type": "DT_INT64"}}}, {"name": "StatefulPartitionedCall/SparseToDense_14", "op": "SparseToDense", "input": ["StatefulPartitionedCall/ExpandDims_4", "StatefulPartitionedCall/Cast_9", "StatefulPartitionedCall/onnx_tf_prefix_Constant_23", "StatefulPartitionedCall/Const_14"], "attr": {"Tindices": {"type": "DT_INT64"}, "validate_indices": {"b": true}, "T": {"type": "DT_INT64"}}}, {"name": "StatefulPartitionedCall/SparseToDense_15", "op": "SparseToDense", "input": ["StatefulPartitionedCall/ExpandDims_5", "StatefulPartitionedCall/Cast_11", "StatefulPartitionedCall/SelectV2_21", "StatefulPartitionedCall/zeros_5"], "attr": {"validate_indices": {"b": true}, "T": {"type": "DT_INT64"}, "Tindices": {"type": "DT_INT64"}}}, {"name": "StatefulPartitionedCall/SparseToDense_16", "op": "SparseToDense", "input": ["StatefulPartitionedCall/ExpandDims_5", "StatefulPartitionedCall/Cast_11", "StatefulPartitionedCall/SelectV2_22", "StatefulPartitionedCall/Const_15"], "attr": {"Tindices": {"type": "DT_INT64"}, "validate_indices": {"b": true}, "T": {"type": "DT_INT64"}}}, {"name": "StatefulPartitionedCall/SparseToDense_17", "op": "SparseToDense", "input": ["StatefulPartitionedCall/ExpandDims_5", "StatefulPartitionedCall/Cast_11", "StatefulPartitionedCall/onnx_tf_prefix_Constant_28", "StatefulPartitionedCall/Const_17"], "attr": {"Tindices": {"type": "DT_INT64"}, "validate_indices": {"b": true}, "T": {"type": "DT_INT64"}}}, {"name": "StatefulPartitionedCall/SparseToDense_18", "op": "SparseToDense", "input": ["StatefulPartitionedCall/ExpandDims_6", "StatefulPartitionedCall/Cast_13", "StatefulPartitionedCall/SelectV2_25", "StatefulPartitionedCall/zeros_6"], "attr": {"Tindices": {"type": "DT_INT64"}, "validate_indices": {"b": true}, "T": {"type": "DT_INT64"}}}, {"name": "StatefulPartitionedCall/SparseToDense_19", "op": "SparseToDense", "input": ["StatefulPartitionedCall/ExpandDims_6", "StatefulPartitionedCall/Cast_13", "StatefulPartitionedCall/SelectV2_26", "StatefulPartitionedCall/Const_18"], "attr": {"Tindices": {"type": "DT_INT64"}, "validate_indices": {"b": true}, "T": {"type": "DT_INT64"}}}, {"name": "StatefulPartitionedCall/SparseToDense_20", "op": "SparseToDense", "input": ["StatefulPartitionedCall/ExpandDims_6", "StatefulPartitionedCall/Cast_13", "StatefulPartitionedCall/onnx_tf_prefix_Constant_33", "StatefulPartitionedCall/Const_20"], "attr": {"Tindices": {"type": "DT_INT64"}, "validate_indices": {"b": true}, "T": {"type": "DT_INT64"}}}, {"name": "StatefulPartitionedCall/SparseToDense_21", "op": "SparseToDense", "input": ["StatefulPartitionedCall/ExpandDims_7", "StatefulPartitionedCall/Cast_15", "StatefulPartitionedCall/SelectV2_29", "StatefulPartitionedCall/zeros_7"], "attr": {"validate_indices": {"b": true}, "T": {"type": "DT_INT64"}, "Tindices": {"type": "DT_INT64"}}}, {"name": "StatefulPartitionedCall/SparseToDense_22", "op": "SparseToDense", "input": ["StatefulPartitionedCall/ExpandDims_7", "StatefulPartitionedCall/Cast_15", "StatefulPartitionedCall/SelectV2_30", "StatefulPartitionedCall/Const_21"], "attr": {"Tindices": {"type": "DT_INT64"}, "validate_indices": {"b": true}, "T": {"type": "DT_INT64"}}}, {"name": "StatefulPartitionedCall/SparseToDense_23", "op": "SparseToDense", "input": ["StatefulPartitionedCall/ExpandDims_7", "StatefulPartitionedCall/Cast_15", "StatefulPartitionedCall/onnx_tf_prefix_Constant_38", "StatefulPartitionedCall/Const_23"], "attr": {"Tindices": {"type": "DT_INT64"}, "validate_indices": {"b": true}, "T": {"type": "DT_INT64"}}}, {"name": "StatefulPartitionedCall/SparseToDense_53", "op": "SparseToDense", "input": ["StatefulPartitionedCall/ExpandDims_16", "StatefulPartitionedCall/Cast_60", "StatefulPartitionedCall/SelectV2_65", "StatefulPartitionedCall/zeros_21"], "attr": {"validate_indices": {"b": true}, "T": {"type": "DT_INT64"}, "Tindices": {"type": "DT_INT64"}}}, {"name": "StatefulPartitionedCall/SparseToDense_54", "op": "SparseToDense", "input": ["StatefulPartitionedCall/ExpandDims_16", "StatefulPartitionedCall/Cast_60", "StatefulPartitionedCall/SelectV2_66", "StatefulPartitionedCall/Const_144"], "attr": {"Tindices": {"type": "DT_INT64"}, "validate_indices": {"b": true}, "T": {"type": "DT_INT64"}}}, {"name": "StatefulPartitionedCall/SparseToDense_55", "op": "SparseToDense", "input": ["StatefulPartitionedCall/ExpandDims_16", "StatefulPartitionedCall/Cast_60", "StatefulPartitionedCall/onnx_tf_prefix_Constant_394", "StatefulPartitionedCall/Const_146"], "attr": {"Tindices": {"type": "DT_INT64"}, "validate_indices": {"b": true}, "T": {"type": "DT_INT64"}}}, {"name": "StatefulPartitionedCall/assert_equal_17/Assert/AssertGuard/StatefulPartitionedCall/assert_equal_17/All/_264", "op": "Switch", "input": ["StatefulPartitionedCall/assert_equal_17/All", "StatefulPartitionedCall/assert_equal_17/All"], "attr": {"T": {"type": "DT_BOOL"}}}, {"name": "StatefulPartitionedCall/assert_equal_17/Assert/AssertGuard/StatefulPartitionedCall/LogicalAnd_8/_265", "op": "Switch", "input": ["StatefulPartitionedCall/LogicalAnd_8", "StatefulPartitionedCall/assert_equal_17/All"], "attr": {"T": {"type": "DT_BOOL"}}}, {"name": "StatefulPartitionedCall/assert_equal_17/Assert/AssertGuard/StatefulPartitionedCall/assert_equal_17/y/_266", "op": "Switch", "input": ["StatefulPartitionedCall/assert_equal_17/y", "StatefulPartitionedCall/assert_equal_17/All"], "attr": {"T": {"type": "DT_BOOL"}}}, {"name": "StatefulPartitionedCall/assert_equal_15/Assert/AssertGuard/StatefulPartitionedCall/assert_equal_15/All/_254", "op": "Switch", "input": ["StatefulPartitionedCall/assert_equal_15/All", "StatefulPartitionedCall/assert_equal_15/All"], "attr": {"T": {"type": "DT_BOOL"}}}, {"name": "StatefulPartitionedCall/assert_equal_15/Assert/AssertGuard/StatefulPartitionedCall/LogicalAnd_7/_255", "op": "Switch", "input": ["StatefulPartitionedCall/LogicalAnd_7", "StatefulPartitionedCall/assert_equal_15/All"], "attr": {"T": {"type": "DT_BOOL"}}}, {"name": "StatefulPartitionedCall/assert_equal_15/Assert/AssertGuard/StatefulPartitionedCall/assert_equal_15/y/_256", "op": "Switch", "input": ["StatefulPartitionedCall/assert_equal_15/y", "StatefulPartitionedCall/assert_equal_15/All"], "attr": {"T": {"type": "DT_BOOL"}}}, {"name": "StatefulPartitionedCall/assert_equal_13/Assert/AssertGuard/StatefulPartitionedCall/assert_equal_13/All/_244", "op": "Switch", "input": ["StatefulPartitionedCall/assert_equal_13/All", "StatefulPartitionedCall/assert_equal_13/All"], "attr": {"T": {"type": "DT_BOOL"}}}, {"name": "StatefulPartitionedCall/assert_equal_13/Assert/AssertGuard/StatefulPartitionedCall/LogicalAnd_6/_245", "op": "Switch", "input": ["StatefulPartitionedCall/LogicalAnd_6", "StatefulPartitionedCall/assert_equal_13/All"], "attr": {"T": {"type": "DT_BOOL"}}}, {"name": "StatefulPartitionedCall/assert_equal_13/Assert/AssertGuard/StatefulPartitionedCall/assert_equal_13/y/_246", "op": "Switch", "input": ["StatefulPartitionedCall/assert_equal_13/y", "StatefulPartitionedCall/assert_equal_13/All"], "attr": {"T": {"type": "DT_BOOL"}}}, {"name": "StatefulPartitionedCall/assert_equal_11/Assert/AssertGuard/StatefulPartitionedCall/assert_equal_11/All/_234", "op": "Switch", "input": ["StatefulPartitionedCall/assert_equal_11/All", "StatefulPartitionedCall/assert_equal_11/All"], "attr": {"T": {"type": "DT_BOOL"}}}, {"name": "StatefulPartitionedCall/assert_equal_11/Assert/AssertGuard/StatefulPartitionedCall/LogicalAnd_5/_235", "op": "Switch", "input": ["StatefulPartitionedCall/LogicalAnd_5", "StatefulPartitionedCall/assert_equal_11/All"], "attr": {"T": {"type": "DT_BOOL"}}}, {"name": "StatefulPartitionedCall/assert_equal_11/Assert/AssertGuard/StatefulPartitionedCall/assert_equal_11/y/_236", "op": "Switch", "input": ["StatefulPartitionedCall/assert_equal_11/y", "StatefulPartitionedCall/assert_equal_11/All"], "attr": {"T": {"type": "DT_BOOL"}}}, {"name": "StatefulPartitionedCall/assert_equal_9/Assert/AssertGuard/StatefulPartitionedCall/assert_equal_9/All/_224", "op": "Switch", "input": ["StatefulPartitionedCall/assert_equal_9/All", "StatefulPartitionedCall/assert_equal_9/All"], "attr": {"T": {"type": "DT_BOOL"}}}, {"name": "StatefulPartitionedCall/assert_equal_9/Assert/AssertGuard/StatefulPartitionedCall/LogicalAnd_4/_225", "op": "Switch", "input": ["StatefulPartitionedCall/LogicalAnd_4", "StatefulPartitionedCall/assert_equal_9/All"], "attr": {"T": {"type": "DT_BOOL"}}}, {"name": "StatefulPartitionedCall/assert_equal_9/Assert/AssertGuard/StatefulPartitionedCall/assert_equal_9/y/_226", "op": "Switch", "input": ["StatefulPartitionedCall/assert_equal_9/y", "StatefulPartitionedCall/assert_equal_9/All"], "attr": {"T": {"type": "DT_BOOL"}}}, {"name": "StatefulPartitionedCall/assert_equal_7/Assert/AssertGuard/StatefulPartitionedCall/assert_equal_7/All/_214", "op": "Switch", "input": ["StatefulPartitionedCall/assert_equal_7/All", "StatefulPartitionedCall/assert_equal_7/All"], "attr": {"T": {"type": "DT_BOOL"}}}, {"name": "StatefulPartitionedCall/assert_equal_7/Assert/AssertGuard/StatefulPartitionedCall/LogicalAnd_3/_215", "op": "Switch", "input": ["StatefulPartitionedCall/LogicalAnd_3", "StatefulPartitionedCall/assert_equal_7/All"], "attr": {"T": {"type": "DT_BOOL"}}}, {"name": "StatefulPartitionedCall/assert_equal_7/Assert/AssertGuard/StatefulPartitionedCall/assert_equal_7/y/_216", "op": "Switch", "input": ["StatefulPartitionedCall/assert_equal_7/y", "StatefulPartitionedCall/assert_equal_7/All"], "attr": {"T": {"type": "DT_BOOL"}}}, {"name": "StatefulPartitionedCall/assert_equal_5/Assert/AssertGuard/StatefulPartitionedCall/assert_equal_5/All/_204", "op": "Switch", "input": ["StatefulPartitionedCall/assert_equal_5/All", "StatefulPartitionedCall/assert_equal_5/All"], "attr": {"T": {"type": "DT_BOOL"}}}, {"name": "StatefulPartitionedCall/assert_equal_5/Assert/AssertGuard/StatefulPartitionedCall/LogicalAnd_2/_205", "op": "Switch", "input": ["StatefulPartitionedCall/LogicalAnd_2", "StatefulPartitionedCall/assert_equal_5/All"], "attr": {"T": {"type": "DT_BOOL"}}}, {"name": "StatefulPartitionedCall/assert_equal_5/Assert/AssertGuard/StatefulPartitionedCall/assert_equal_5/y/_206", "op": "Switch", "input": ["StatefulPartitionedCall/assert_equal_5/y", "StatefulPartitionedCall/assert_equal_5/All"], "attr": {"T": {"type": "DT_BOOL"}}}, {"name": "StatefulPartitionedCall/assert_equal_3/Assert/AssertGuard/StatefulPartitionedCall/assert_equal_3/All/_194", "op": "Switch", "input": ["StatefulPartitionedCall/assert_equal_3/All", "StatefulPartitionedCall/assert_equal_3/All"], "attr": {"T": {"type": "DT_BOOL"}}}, {"name": "StatefulPartitionedCall/assert_equal_3/Assert/AssertGuard/StatefulPartitionedCall/LogicalAnd_1/_195", "op": "Switch", "input": ["StatefulPartitionedCall/LogicalAnd_1", "StatefulPartitionedCall/assert_equal_3/All"], "attr": {"T": {"type": "DT_BOOL"}}}, {"name": "StatefulPartitionedCall/assert_equal_3/Assert/AssertGuard/StatefulPartitionedCall/assert_equal_3/y/_196", "op": "Switch", "input": ["StatefulPartitionedCall/assert_equal_3/y", "StatefulPartitionedCall/assert_equal_3/All"], "attr": {"T": {"type": "DT_BOOL"}}}, {"name": "StatefulPartitionedCall/assert_equal_1/Assert/AssertGuard/StatefulPartitionedCall/assert_equal_1/All/_184", "op": "Switch", "input": ["StatefulPartitionedCall/assert_equal_1/All", "StatefulPartitionedCall/assert_equal_1/All"], "attr": {"T": {"type": "DT_BOOL"}}}, {"name": "StatefulPartitionedCall/assert_equal_1/Assert/AssertGuard/StatefulPartitionedCall/LogicalAnd/_185", "op": "Switch", "input": ["StatefulPartitionedCall/LogicalAnd", "StatefulPartitionedCall/assert_equal_1/All"], "attr": {"T": {"type": "DT_BOOL"}}}, {"name": "StatefulPartitionedCall/assert_equal_1/Assert/AssertGuard/StatefulPartitionedCall/assert_equal_1/y/_186", "op": "Switch", "input": ["StatefulPartitionedCall/assert_equal_1/y", "StatefulPartitionedCall/assert_equal_1/All"], "attr": {"T": {"type": "DT_BOOL"}}}, {"name": "StatefulPartitionedCall/assert_equal_1/Assert/AssertGuard/switch_pred/_181", "op": "Switch", "input": ["StatefulPartitionedCall/assert_equal_1/All", "StatefulPartitionedCall/assert_equal_1/All"], "device": "/device:CPU:0", "attr": {"_PivotSwitch": {"b": true}, "T": {"type": "DT_BOOL"}}}, {"name": "StatefulPartitionedCall/Equal_9", "op": "Equal", "input": ["StatefulPartitionedCall/SparseToDense_26", "StatefulPartitionedCall/Const_115"], "attr": {"T": {"type": "DT_INT64"}, "incompatible_shape_error": {"b": true}}}, {"name": "StatefulPartitionedCall/Equal_10", "op": "Equal", "input": ["StatefulPartitionedCall/SparseToDense_29", "StatefulPartitionedCall/Const_118"], "attr": {"T": {"type": "DT_INT64"}, "incompatible_shape_error": {"b": true}}}, {"name": "StatefulPartitionedCall/Equal_11", "op": "Equal", "input": ["StatefulPartitionedCall/SparseToDense_32", "StatefulPartitionedCall/Const_121"], "attr": {"T": {"type": "DT_INT64"}, "incompatible_shape_error": {"b": true}}}, {"name": "StatefulPartitionedCall/Equal_14", "op": "Equal", "input": ["StatefulPartitionedCall/SparseToDense_37", "StatefulPartitionedCall/Const_127"], "attr": {"incompatible_shape_error": {"b": true}, "T": {"type": "DT_INT64"}}}, {"name": "StatefulPartitionedCall/Equal_15", "op": "Equal", "input": ["StatefulPartitionedCall/SparseToDense_40", "StatefulPartitionedCall/Const_130"], "attr": {"incompatible_shape_error": {"b": true}, "T": {"type": "DT_INT64"}}}, {"name": "StatefulPartitionedCall/Equal_16", "op": "Equal", "input": ["StatefulPartitionedCall/SparseToDense_43", "StatefulPartitionedCall/Const_133"], "attr": {"T": {"type": "DT_INT64"}, "incompatible_shape_error": {"b": true}}}, {"name": "StatefulPartitionedCall/Equal_19", "op": "Equal", "input": ["StatefulPartitionedCall/SparseToDense_48", "StatefulPartitionedCall/Const_139"], "attr": {"T": {"type": "DT_INT64"}, "incompatible_shape_error": {"b": true}}}, {"name": "StatefulPartitionedCall/Equal_20", "op": "Equal", "input": ["StatefulPartitionedCall/SparseToDense_51", "StatefulPartitionedCall/Const_142"], "attr": {"T": {"type": "DT_INT64"}, "incompatible_shape_error": {"b": true}}}, {"name": "StatefulPartitionedCall/Equal", "op": "Equal", "input": ["StatefulPartitionedCall/SparseToDense_1", "StatefulPartitionedCall/Const_1"], "attr": {"T": {"type": "DT_INT64"}, "incompatible_shape_error": {"b": true}}}, {"name": "StatefulPartitionedCall/Equal_1", "op": "Equal", "input": ["StatefulPartitionedCall/SparseToDense_4", "StatefulPartitionedCall/Const_4"], "attr": {"T": {"type": "DT_INT64"}, "incompatible_shape_error": {"b": true}}}, {"name": "StatefulPartitionedCall/Equal_2", "op": "Equal", "input": ["StatefulPartitionedCall/SparseToDense_7", "StatefulPartitionedCall/Const_7"], "attr": {"T": {"type": "DT_INT64"}, "incompatible_shape_error": {"b": true}}}, {"name": "StatefulPartitionedCall/Equal_3", "op": "Equal", "input": ["StatefulPartitionedCall/SparseToDense_10", "StatefulPartitionedCall/Const_10"], "attr": {"T": {"type": "DT_INT64"}, "incompatible_shape_error": {"b": true}}}, {"name": "StatefulPartitionedCall/Equal_4", "op": "Equal", "input": ["StatefulPartitionedCall/SparseToDense_13", "StatefulPartitionedCall/Const_13"], "attr": {"incompatible_shape_error": {"b": true}, "T": {"type": "DT_INT64"}}}, {"name": "StatefulPartitionedCall/Equal_5", "op": "Equal", "input": ["StatefulPartitionedCall/SparseToDense_16", "StatefulPartitionedCall/Const_16"], "attr": {"T": {"type": "DT_INT64"}, "incompatible_shape_error": {"b": true}}}, {"name": "StatefulPartitionedCall/Equal_6", "op": "Equal", "input": ["StatefulPartitionedCall/SparseToDense_19", "StatefulPartitionedCall/Const_19"], "attr": {"T": {"type": "DT_INT64"}, "incompatible_shape_error": {"b": true}}}, {"name": "StatefulPartitionedCall/Equal_7", "op": "Equal", "input": ["StatefulPartitionedCall/SparseToDense_22", "StatefulPartitionedCall/Const_22"], "attr": {"incompatible_shape_error": {"b": true}, "T": {"type": "DT_INT64"}}}, {"name": "StatefulPartitionedCall/Equal_21", "op": "Equal", "input": ["StatefulPartitionedCall/SparseToDense_54", "StatefulPartitionedCall/Const_145"], "attr": {"T": {"type": "DT_INT64"}, "incompatible_shape_error": {"b": true}}}, {"name": "StatefulPartitionedCall/assert_equal_1/Assert/AssertGuard/pivot_f/_182", "op": "Identity", "input": ["StatefulPartitionedCall/assert_equal_1/Assert/AssertGuard/switch_pred/_181"], "attr": {"T": {"type": "DT_BOOL"}}}, {"name": "StatefulPartitionedCall/SelectV2_35", "op": "SelectV2", "input": ["StatefulPartitionedCall/Equal_9", "StatefulPartitionedCall/Shape_10", "StatefulPartitionedCall/SparseToDense_26"], "attr": {"T": {"type": "DT_INT64"}}}, {"name": "StatefulPartitionedCall/SelectV2_39", "op": "SelectV2", "input": ["StatefulPartitionedCall/Equal_10", "StatefulPartitionedCall/Shape_11", "StatefulPartitionedCall/SparseToDense_29"], "attr": {"T": {"type": "DT_INT64"}}}, {"name": "StatefulPartitionedCall/SelectV2_43", "op": "SelectV2", "input": ["StatefulPartitionedCall/Equal_11", "StatefulPartitionedCall/Shape_12", "StatefulPartitionedCall/SparseToDense_32"], "attr": {"T": {"type": "DT_INT64"}}}, {"name": "StatefulPartitionedCall/SelectV2_47", "op": "SelectV2", "input": ["StatefulPartitionedCall/Equal_14", "StatefulPartitionedCall/Shape_17", "StatefulPartitionedCall/SparseToDense_37"], "attr": {"T": {"type": "DT_INT64"}}}, {"name": "StatefulPartitionedCall/SelectV2_51", "op": "SelectV2", "input": ["StatefulPartitionedCall/Equal_15", "StatefulPartitionedCall/Shape_18", "StatefulPartitionedCall/SparseToDense_40"], "attr": {"T": {"type": "DT_INT64"}}}, {"name": "StatefulPartitionedCall/SelectV2_55", "op": "SelectV2", "input": ["StatefulPartitionedCall/Equal_16", "StatefulPartitionedCall/Shape_19", "StatefulPartitionedCall/SparseToDense_43"], "attr": {"T": {"type": "DT_INT64"}}}, {"name": "StatefulPartitionedCall/SelectV2_59", "op": "SelectV2", "input": ["StatefulPartitionedCall/Equal_19", "StatefulPartitionedCall/Shape_24", "StatefulPartitionedCall/SparseToDense_48"], "attr": {"T": {"type": "DT_INT64"}}}, {"name": "StatefulPartitionedCall/SelectV2_63", "op": "SelectV2", "input": ["StatefulPartitionedCall/Equal_20", "StatefulPartitionedCall/Shape_25", "StatefulPartitionedCall/SparseToDense_51"], "attr": {"T": {"type": "DT_INT64"}}}, {"name": "StatefulPartitionedCall/SelectV2_3", "op": "SelectV2", "input": ["StatefulPartitionedCall/Equal", "StatefulPartitionedCall/Shape", "StatefulPartitionedCall/SparseToDense_1"], "attr": {"T": {"type": "DT_INT64"}}}, {"name": "StatefulPartitionedCall/SelectV2_7", "op": "SelectV2", "input": ["StatefulPartitionedCall/Equal_1", "StatefulPartitionedCall/Shape_1", "StatefulPartitionedCall/SparseToDense_4"], "attr": {"T": {"type": "DT_INT64"}}}, {"name": "StatefulPartitionedCall/SelectV2_11", "op": "SelectV2", "input": ["StatefulPartitionedCall/Equal_2", "StatefulPartitionedCall/Shape_2", "StatefulPartitionedCall/SparseToDense_7"], "attr": {"T": {"type": "DT_INT64"}}}, {"name": "StatefulPartitionedCall/SelectV2_15", "op": "SelectV2", "input": ["StatefulPartitionedCall/Equal_3", "StatefulPartitionedCall/Shape_3", "StatefulPartitionedCall/SparseToDense_10"], "attr": {"T": {"type": "DT_INT64"}}}, {"name": "StatefulPartitionedCall/SelectV2_19", "op": "SelectV2", "input": ["StatefulPartitionedCall/Equal_4", "StatefulPartitionedCall/Shape_4", "StatefulPartitionedCall/SparseToDense_13"], "attr": {"T": {"type": "DT_INT64"}}}, {"name": "StatefulPartitionedCall/SelectV2_23", "op": "SelectV2", "input": ["StatefulPartitionedCall/Equal_5", "StatefulPartitionedCall/Shape_5", "StatefulPartitionedCall/SparseToDense_16"], "attr": {"T": {"type": "DT_INT64"}}}, {"name": "StatefulPartitionedCall/SelectV2_27", "op": "SelectV2", "input": ["StatefulPartitionedCall/Equal_6", "StatefulPartitionedCall/Shape_6", "StatefulPartitionedCall/SparseToDense_19"], "attr": {"T": {"type": "DT_INT64"}}}, {"name": "StatefulPartitionedCall/SelectV2_31", "op": "SelectV2", "input": ["StatefulPartitionedCall/Equal_7", "StatefulPartitionedCall/Shape_7", "StatefulPartitionedCall/SparseToDense_22"], "attr": {"T": {"type": "DT_INT64"}}}, {"name": "StatefulPartitionedCall/SelectV2_67", "op": "SelectV2", "input": ["StatefulPartitionedCall/Equal_21", "StatefulPartitionedCall/Shape_26", "StatefulPartitionedCall/SparseToDense_54"], "attr": {"T": {"type": "DT_INT64"}}}, {"name": "Func/StatefulPartitionedCall/assert_equal_1/Assert/AssertGuard/else/_180/input/_276", "op": "Identity", "input": ["StatefulPartitionedCall/assert_equal_1/Assert/AssertGuard/StatefulPartitionedCall/assert_equal_1/All/_184", "^StatefulPartitionedCall/assert_equal_1/Assert/AssertGuard/pivot_f/_182"], "attr": {"T": {"type": "DT_BOOL"}}}, {"name": "Func/StatefulPartitionedCall/assert_equal_1/Assert/AssertGuard/else/_180/input/_277", "op": "Identity", "input": ["StatefulPartitionedCall/assert_equal_1/Assert/AssertGuard/StatefulPartitionedCall/LogicalAnd/_185", "^StatefulPartitionedCall/assert_equal_1/Assert/AssertGuard/pivot_f/_182"], "attr": {"T": {"type": "DT_BOOL"}}}, {"name": "Func/StatefulPartitionedCall/assert_equal_1/Assert/AssertGuard/else/_180/input/_278", "op": "Identity", "input": ["StatefulPartitionedCall/assert_equal_1/Assert/AssertGuard/StatefulPartitionedCall/assert_equal_1/y/_186", "^StatefulPartitionedCall/assert_equal_1/Assert/AssertGuard/pivot_f/_182"], "attr": {"T": {"type": "DT_BOOL"}}}, {"name": "StatefulPartitionedCall/onnx_tf_prefix_Slice_4", "op": "StridedSlice", "input": ["images", "StatefulPartitionedCall/SparseToDense", "StatefulPartitionedCall/SelectV2_3", "StatefulPartitionedCall/SparseToDense_2"], "attr": {"shrink_axis_mask": {"i": "0"}, "begin_mask": {"i": "0"}, "ellipsis_mask": {"i": "0"}, "new_axis_mask": {"i": "0"}, "end_mask": {"i": "0"}, "T": {"type": "DT_FLOAT"}, "Index": {"type": "DT_INT64"}}}, {"name": "StatefulPartitionedCall/onnx_tf_prefix_Slice_14", "op": "StridedSlice", "input": ["images", "StatefulPartitionedCall/SparseToDense_6", "StatefulPartitionedCall/SelectV2_11", "StatefulPartitionedCall/SparseToDense_8"], "attr": {"end_mask": {"i": "0"}, "Index": {"type": "DT_INT64"}, "T": {"type": "DT_FLOAT"}, "shrink_axis_mask": {"i": "0"}, "begin_mask": {"i": "0"}, "ellipsis_mask": {"i": "0"}, "new_axis_mask": {"i": "0"}}}, {"name": "StatefulPartitionedCall/onnx_tf_prefix_Slice_24", "op": "StridedSlice", "input": ["images", "StatefulPartitionedCall/SparseToDense_12", "StatefulPartitionedCall/SelectV2_19", "StatefulPartitionedCall/SparseToDense_14"], "attr": {"new_axis_mask": {"i": "0"}, "end_mask": {"i": "0"}, "Index": {"type": "DT_INT64"}, "T": {"type": "DT_FLOAT"}, "shrink_axis_mask": {"i": "0"}, "ellipsis_mask": {"i": "0"}, "begin_mask": {"i": "0"}}}, {"name": "StatefulPartitionedCall/onnx_tf_prefix_Slice_34", "op": "StridedSlice", "input": ["images", "StatefulPartitionedCall/SparseToDense_18", "StatefulPartitionedCall/SelectV2_27", "StatefulPartitionedCall/SparseToDense_20"], "attr": {"T": {"type": "DT_FLOAT"}, "Index": {"type": "DT_INT64"}, "shrink_axis_mask": {"i": "0"}, "begin_mask": {"i": "0"}, "ellipsis_mask": {"i": "0"}, "new_axis_mask": {"i": "0"}, "end_mask": {"i": "0"}}}, {"name": "StatefulPartitionedCall/assert_equal_1/Assert/AssertGuard/else/_180/assert_equal_1/Assert/AssertGuard/Assert", "op": "NoOp", "input": ["^Func/StatefulPartitionedCall/assert_equal_1/Assert/AssertGuard/else/_180/input/_276", "^Func/StatefulPartitionedCall/assert_equal_1/Assert/AssertGuard/else/_180/input/_277", "^Func/StatefulPartitionedCall/assert_equal_1/Assert/AssertGuard/else/_180/input/_278"]}, {"name": "StatefulPartitionedCall/onnx_tf_prefix_Slice_9", "op": "StridedSlice", "input": ["StatefulPartitionedCall/onnx_tf_prefix_Slice_4", "StatefulPartitionedCall/SparseToDense_3", "StatefulPartitionedCall/SelectV2_7", "StatefulPartitionedCall/SparseToDense_5"], "attr": {"shrink_axis_mask": {"i": "0"}, "ellipsis_mask": {"i": "0"}, "begin_mask": {"i": "0"}, "new_axis_mask": {"i": "0"}, "end_mask": {"i": "0"}, "Index": {"type": "DT_INT64"}, "T": {"type": "DT_FLOAT"}}}, {"name": "StatefulPartitionedCall/onnx_tf_prefix_Slice_19", "op": "StridedSlice", "input": ["StatefulPartitionedCall/onnx_tf_prefix_Slice_14", "StatefulPartitionedCall/SparseToDense_9", "StatefulPartitionedCall/SelectV2_15", "StatefulPartitionedCall/SparseToDense_11"], "attr": {"begin_mask": {"i": "0"}, "ellipsis_mask": {"i": "0"}, "new_axis_mask": {"i": "0"}, "end_mask": {"i": "0"}, "T": {"type": "DT_FLOAT"}, "Index": {"type": "DT_INT64"}, "shrink_axis_mask": {"i": "0"}}}, {"name": "StatefulPartitionedCall/onnx_tf_prefix_Slice_29", "op": "StridedSlice", "input": ["StatefulPartitionedCall/onnx_tf_prefix_Slice_24", "StatefulPartitionedCall/SparseToDense_15", "StatefulPartitionedCall/SelectV2_23", "StatefulPartitionedCall/SparseToDense_17"], "attr": {"shrink_axis_mask": {"i": "0"}, "ellipsis_mask": {"i": "0"}, "begin_mask": {"i": "0"}, "new_axis_mask": {"i": "0"}, "end_mask": {"i": "0"}, "Index": {"type": "DT_INT64"}, "T": {"type": "DT_FLOAT"}}}, {"name": "StatefulPartitionedCall/onnx_tf_prefix_Slice_39", "op": "StridedSlice", "input": ["StatefulPartitionedCall/onnx_tf_prefix_Slice_34", "StatefulPartitionedCall/SparseToDense_21", "StatefulPartitionedCall/SelectV2_31", "StatefulPartitionedCall/SparseToDense_23"], "attr": {"shrink_axis_mask": {"i": "0"}, "ellipsis_mask": {"i": "0"}, "begin_mask": {"i": "0"}, "new_axis_mask": {"i": "0"}, "end_mask": {"i": "0"}, "Index": {"type": "DT_INT64"}, "T": {"type": "DT_FLOAT"}}}, {"name": "StatefulPartitionedCall/assert_equal_1/Assert/AssertGuard/else/_180/assert_equal_1/Assert/AssertGuard/Identity", "op": "Identity", "input": ["Func/StatefulPartitionedCall/assert_equal_1/Assert/AssertGuard/else/_180/input/_276", "^StatefulPartitionedCall/assert_equal_1/Assert/AssertGuard/else/_180/assert_equal_1/Assert/AssertGuard/Assert"], "attr": {"T": {"type": "DT_BOOL"}}}, {"name": "StatefulPartitionedCall/assert_equal_1/Assert/AssertGuard/branch_executed/_188", "op": "Merge", "input": ["StatefulPartitionedCall/assert_equal_1/Assert/AssertGuard/pivot_t/_183", "StatefulPartitionedCall/assert_equal_1/Assert/AssertGuard/pivot_f/_182", "^StatefulPartitionedCall/assert_equal_1/Assert/AssertGuard/else/_180/assert_equal_1/Assert/AssertGuard/Assert"], "attr": {"N": {"i": "2"}, "T": {"type": "DT_BOOL"}}}, {"name": "StatefulPartitionedCall/onnx_tf_prefix_Concat_40", "op": "ConcatV2", "input": ["StatefulPartitionedCall/onnx_tf_prefix_Slice_9", "StatefulPartitionedCall/onnx_tf_prefix_Slice_19", "StatefulPartitionedCall/onnx_tf_prefix_Slice_29", "StatefulPartitionedCall/onnx_tf_prefix_Slice_39", "StatefulPartitionedCall/onnx_tf_prefix_Concat_40/axis"], "attr": {"N": {"i": "4"}, "Tidx": {"type": "DT_INT32"}, "T": {"type": "DT_FLOAT"}}}, {"name": "StatefulPartitionedCall/assert_equal_1/Assert/AssertGuard/output/_187", "op": "Merge", "input": ["Func/StatefulPartitionedCall/assert_equal_1/Assert/AssertGuard/then/_179/output/_273", "StatefulPartitionedCall/assert_equal_1/Assert/AssertGuard/else/_180/assert_equal_1/Assert/AssertGuard/Identity"], "attr": {"T": {"type": "DT_BOOL"}, "N": {"i": "2"}}}, {"name": "StatefulPartitionedCall/assert_equal_3/Assert/AssertGuard/pivot_t/_193", "op": "Const", "input": ["^StatefulPartitionedCall/assert_equal_1/Assert/AssertGuard…
all/Cast_28", "shape": [1], "dtype": "int32"}, {"name": "StatefulPartitionedCall/onnx_tf_prefix_Constant_273", "shape": [1], "dtype": "int32"}, {"name": "StatefulPartitionedCall/Const_116", "shape": [], "dtype": "int32"}, {"name": "StatefulPartitionedCall/onnx_tf_prefix_Constant_275", "shape": [], "dtype": "float32"}, {"name": "StatefulPartitionedCall/onnx_tf_prefix_Sub_278", "shape": [1, 1, 52, 52, 2], "dtype": "float32"}, {"name": "StatefulPartitionedCall/onnx_tf_prefix_Constant_281", "shape": [], "dtype": "float32"}, {"name": "StatefulPartitionedCall/SelectV2_37", "shape": [1], "dtype": "int32"}, {"name": "StatefulPartitionedCall/zeros_10", "shape": [], "dtype": "int32"}, {"name": "StatefulPartitionedCall/Const_118", "shape": [], "dtype": "int32"}, {"name": "StatefulPartitionedCall/Shape_11", "shape": [5], "dtype": "int32"}, {"name": "StatefulPartitionedCall/SelectV2_38", "shape": [1], "dtype": "int32"}, {"name": "StatefulPartitionedCall/Const_117", "shape": [], "dtype": "int32"}, {"name": "StatefulPartitionedCall/ExpandDims_9", "shape": [1, 1], "dtype": "int32"}, {"name": "StatefulPartitionedCall/Cast_30", "shape": [1], "dtype": "int32"}, {"name": "StatefulPartitionedCall/onnx_tf_prefix_Constant_286", "shape": [1], "dtype": "int32"}, {"name": "StatefulPartitionedCall/Const_119", "shape": [], "dtype": "int32"}, {"name": "StatefulPartitionedCall/onnx_tf_prefix_Constant_288", "shape": [], "dtype": "float32"}, {"name": "unknown_155", "shape": [1, 3, 1, 1, 2], "dtype": "float32"}, {"name": "StatefulPartitionedCall/transpose_212/perm", "shape": [4], "dtype": "int32"}, {"name": "StatefulPartitionedCall/split_67", "shape": [1, 1, 128, 54], "dtype": "float32"}, {"name": "unknown_152", "shape": [54], "dtype": "float32"}, {"name": "StatefulPartitionedCall/transpose_213/perm", "shape": [4], "dtype": "int32"}, {"name": "StatefulPartitionedCall/Cast_26", "shape": [1], "dtype": "int32"}, {"name": "StatefulPartitionedCall/zeros_8", "shape": [], "dtype": "int32"}, {"name": "StatefulPartitionedCall/onnx_tf_prefix_Transpose_268/perm", "shape": [5], "dtype": "int32"}, {"name": "StatefulPartitionedCall/SelectV2_41", "shape": [1], "dtype": "int32"}, {"name": "StatefulPartitionedCall/zeros_11", "shape": [], "dtype": "int32"}, {"name": "StatefulPartitionedCall/Const_121", "shape": [], "dtype": "int32"}, {"name": "StatefulPartitionedCall/Shape_12", "shape": [5], "dtype": "int32"}, {"name": "StatefulPartitionedCall/SelectV2_42", "shape": [1], "dtype": "int32"}, {"name": "StatefulPartitionedCall/Const_120", "shape": [], "dtype": "int32"}, {"name": "StatefulPartitionedCall/ExpandDims_10", "shape": [1, 1], "dtype": "int32"}, {"name": "StatefulPartitionedCall/Cast_32", "shape": [1], "dtype": "int32"}, {"name": "StatefulPartitionedCall/onnx_tf_prefix_Constant_296", "shape": [1], "dtype": "int32"}, {"name": "StatefulPartitionedCall/Const_122", "shape": [], "dtype": "int32"}, {"name": "StatefulPartitionedCall/onnx_tf_prefix_Concat_298/axis", "shape": [], "dtype": "int32"}, {"name": "StatefulPartitionedCall/Cast_33", "shape": [1], "dtype": "int32"}, {"name": "Func/StatefulPartitionedCall/assert_equal_1/Assert/AssertGuard/then/_179/output/_273", "shape": [], "dtype": "bool"}, {"name": "StatefulPartitionedCall/zeros_12", "shape": [], "dtype": "int32"}, {"name": "StatefulPartitionedCall/SelectV2_45", "shape": [1], "dtype": "int32"}, {"name": "StatefulPartitionedCall/zeros_14", "shape": [], "dtype": "int32"}, {"name": "StatefulPartitionedCall/Const_127", "shape": [], "dtype": "int32"}, {"name": "StatefulPartitionedCall/Shape_17", "shape": [5], "dtype": "int32"}, {"name": "StatefulPartitionedCall/SelectV2_46", "shape": [1], "dtype": "int32"}, {"name": "StatefulPartitionedCall/Const_126", "shape": [], "dtype": "int32"}, {"name": "StatefulPartitionedCall/ExpandDims_11", "shape": [1, 1], "dtype": "int32"}, {"name": "StatefulPartitionedCall/Cast_42", "shape": [1], "dtype": "int32"}, {"name": "StatefulPartitionedCall/onnx_tf_prefix_Constant_322", "shape": [1], "dtype": "int32"}, {"name": "StatefulPartitionedCall/Const_128", "shape": [], "dtype": "int32"}, {"name": "StatefulPartitionedCall/onnx_tf_prefix_Constant_324", "shape": [], "dtype": "float32"}, {"name": "StatefulPartitionedCall/onnx_tf_prefix_Sub_327", "shape": [1, 1, 26, 26, 2], "dtype": "float32"}, {"name": "StatefulPartitionedCall/onnx_tf_prefix_Constant_330", "shape": [], "dtype": "float32"}, {"name": "StatefulPartitionedCall/SelectV2_49", "shape": [1], "dtype": "int32"}, {"name": "StatefulPartitionedCall/zeros_15", "shape": [], "dtype": "int32"}, {"name": "StatefulPartitionedCall/Const_130", "shape": [], "dtype": "int32"}, {"name": "StatefulPartitionedCall/Shape_18", "shape": [5], "dtype": "int32"}, {"name": "StatefulPartitionedCall/SelectV2_50", "shape": [1], "dtype": "int32"}, {"name": "StatefulPartitionedCall/Const_129", "shape": [], "dtype": "int32"}, {"name": "StatefulPartitionedCall/ExpandDims_12", "shape": [1, 1], "dtype": "int32"}, {"name": "StatefulPartitionedCall/Cast_44", "shape": [1], "dtype": "int32"}, {"name": "StatefulPartitionedCall/onnx_tf_prefix_Constant_335", "shape": [1], "dtype": "int32"}, {"name": "StatefulPartitionedCall/Const_131", "shape": [], "dtype": "int32"}, {"name": "StatefulPartitionedCall/onnx_tf_prefix_Constant_337", "shape": [], "dtype": "float32"}, {"name": "unknown_162", "shape": [1, 3, 1, 1, 2], "dtype": "float32"}, {"name": "StatefulPartitionedCall/transpose_215/perm", "shape": [4], "dtype": "int32"}, {"name": "StatefulPartitionedCall/split_68", "shape": [1, 1, 256, 54], "dtype": "float32"}, {"name": "unknown_159", "shape": [54], "dtype": "float32"}, {"name": "StatefulPartitionedCall/transpose_216/perm", "shape": [4], "dtype": "int32"}, {"name": "StatefulPartitionedCall/Cast_40", "shape": [1], "dtype": "int32"}, {"name": "StatefulPartitionedCall/zeros_13", "shape": [], "dtype": "int32"}, {"name": "StatefulPartitionedCall/onnx_tf_prefix_Transpose_317/perm", "shape": [5], "dtype": "int32"}, {"name": "StatefulPartitionedCall/SelectV2_53", "shape": [1], "dtype": "int32"}, {"name": "StatefulPartitionedCall/zeros_16", "shape": [], "dtype": "int32"}, {"name": "StatefulPartitionedCall/Const_133", "shape": [], "dtype": "int32"}, {"name": "StatefulPartitionedCall/Shape_19", "shape": [5], "dtype": "int32"}, {"name": "StatefulPartitionedCall/SelectV2_54", "shape": [1], "dtype": "int32"}, {"name": "StatefulPartitionedCall/Const_132", "shape": [], "dtype": "int32"}, {"name": "StatefulPartitionedCall/ExpandDims_13", "shape": [1, 1], "dtype": "int32"}, {"name": "StatefulPartitionedCall/Cast_46", "shape": [1], "dtype": "int32"}, {"name": "StatefulPartitionedCall/onnx_tf_prefix_Constant_345", "shape": [1], "dtype": "int32"}, {"name": "StatefulPartitionedCall/Const_134", "shape": [], "dtype": "int32"}, {"name": "StatefulPartitionedCall/onnx_tf_prefix_Concat_347/axis", "shape": [], "dtype": "int32"}, {"name": "StatefulPartitionedCall/Cast_47", "shape": [1], "dtype": "int32"}, {"name": "StatefulPartitionedCall/zeros_17", "shape": [], "dtype": "int32"}, {"name": "StatefulPartitionedCall/SelectV2_57", "shape": [1], "dtype": "int32"}, {"name": "StatefulPartitionedCall/zeros_19", "shape": [], "dtype": "int32"}, {"name": "StatefulPartitionedCall/Const_139", "shape": [], "dtype": "int32"}, {"name": "StatefulPartitionedCall/Shape_24", "shape": [5], "dtype": "int32"}, {"name": "StatefulPartitionedCall/SelectV2_58", "shape": [1], "dtype": "int32"}, {"name": "StatefulPartitionedCall/Const_138", "shape": [], "dtype": "int32"}, {"name": "StatefulPartitionedCall/ExpandDims_14", "shape": [1, 1], "dtype": "int32"}, {"name": "StatefulPartitionedCall/Cast_56", "shape": [1], "dtype": "int32"}, {"name": "StatefulPartitionedCall/onnx_tf_prefix_Constant_371", "shape": [1], "dtype": "int32"}, {"name": "StatefulPartitionedCall/Const_140", "shape": [], "dtype": "int32"}, {"name": "StatefulPartitionedCall/onnx_tf_prefix_Constant_373", "shape": [], "dtype": "float32"}, {"name": "StatefulPartitionedCall/onnx_tf_prefix_Sub_376", "shape": [1, 1, 13, 13, 2], "dtype": "float32"}, {"name": "StatefulPartitionedCall/onnx_tf_prefix_Constant_379", "shape": [], "dtype": "float32"}, {"name": "StatefulPartitionedCall/SelectV2_61", "shape": [1], "dtype": "int32"}, {"name": "StatefulPartitionedCall/zeros_20", "shape": [], "dtype": "int32"}, {"name": "StatefulPartitionedCall/Const_142", "shape": [], "dtype": "int32"}, {"name": "StatefulPartitionedCall/Shape_25", "shape": [5], "dtype": "int32"}, {"name": "StatefulPartitionedCall/SelectV2_62", "shape": [1], "dtype": "int32"}, {"name": "StatefulPartitionedCall/Const_141", "shape": [], "dtype": "int32"}, {"name": "StatefulPartitionedCall/ExpandDims_15", "shape": [1, 1], "dtype": "int32"}, {"name": "StatefulPartitionedCall/Cast_58", "shape": [1], "dtype": "int32"}, {"name": "StatefulPartitionedCall/onnx_tf_prefix_Constant_384", "shape": [1], "dtype": "int32"}, {"name": "StatefulPartitionedCall/Const_143", "shape": [], "dtype": "int32"}, {"name": "StatefulPartitionedCall/onnx_tf_prefix_Constant_386", "shape": [], "dtype": "float32"}, {"name": "unknown_169", "shape": [1, 3, 1, 1, 2], "dtype": "float32"}, {"name": "StatefulPartitionedCall/transpose_194/perm", "shape": [4], "dtype": "int32"}, {"name": "StatefulPartitionedCall/split_61", "shape": [1, 1, 512, 256], "dtype": "float32"}, {"name": "unknown_138", "shape": [256], "dtype": "float32"}, {"name": "StatefulPartitionedCall/transpose_195/perm", "shape": [4], "dtype": "int32"}, {"name": "StatefulPartitionedCall/transpose_197/perm", "shape": [4], "dtype": "int32"}, {"name": "StatefulPartitionedCall/split_62", "shape": [1, 1, 256, 256], "dtype": "float32"}, {"name": "unknown_140", "shape": [256], "dtype": "float32"}, {"name": "StatefulPartitionedCall/transpose_198/perm", "shape": [4], "dtype": "int32"}, {"name": "StatefulPartitionedCall/Const_107", "shape": [4, 2], "dtype": "int32"}, {"name": "StatefulPartitionedCall/transpose_200/perm", "shape": [4], "dtype": "int32"}, {"name": "StatefulPartitionedCall/split_63", "shape": [3, 3, 256, 256], "dtype": "float32"}, {"name": "unknown_142", "shape": [256], "dtype": "float32"}, {"name": "StatefulPartitionedCall/transpose_201/perm", "shape": [4], "dtype": "int32"}, {"name": "StatefulPartitionedCall/transpose_203/perm", "shape": [4], "dtype": "int32"}, {"name": "StatefulPartitionedCall/split_64", "shape": [1, 1, 256, 256], "dtype": "float32"}, {"name": "StatefulPartitionedCall/transpose_204/perm", "shape": [4], "dtype": "int32"}, {"name": "StatefulPartitionedCall/transpose_173/perm", "shape": [4], "dtype": "int32"}, {"name": "StatefulPartitionedCall/split_54", "shape": [1, 1, 256, 128], "dtype": "float32"}, {"name": "unknown_122", "shape": [128], "dtype": "float32"}, {"name": "StatefulPartitionedCall/transpose_174/perm", "shape": [4], "dtype": "int32"}, {"name": "StatefulPartitionedCall/transpose_176/perm", "shape": [4], "dtype": "int32"}, {"name": "StatefulPartitionedCall/split_55", "shape": [1, 1, 128, 128], "dtype": "float32"}, {"name": "unknown_124", "shape": [128], "dtype": "float32"}, {"name": "StatefulPartitionedCall/transpose_177/perm", "shape": [4], "dtype": "int32"}, {"name": "StatefulPartitionedCall/Const_98", "shape": [4, 2], "dtype": "int32"}, {"name": "StatefulPartitionedCall/transpose_179/perm", "shape": [4], "dtype": "int32"}, {"name": "StatefulPartitionedCall/split_56", "shape": [3, 3, 128, 128], "dtype": "float32"}, {"name": "unknown_126", "shape": [128], "dtype": "float32"}, {"name": "StatefulPartitionedCall/transpose_180/perm", "shape": [4], "dtype": "int32"}, {"name": "StatefulPartitionedCall/transpose_182/perm", "shape": [4], "dtype": "int32"}, {"name": "StatefulPartitionedCall/split_57", "shape": [1, 1, 128, 128], "dtype": "float32"}, {"name": "StatefulPartitionedCall/transpose_183/perm", "shape": [4], "dtype": "int32"}, {"name": "StatefulPartitionedCall/transpose_152/perm", "shape": [4], "dtype": "int32"}, {"name": "StatefulPartitionedCall/split_47", "shape": [1, 1, 256, 64], "dtype": "float32"}, {"name": "unknown_106", "shape": [64], "dtype": "float32"}, {"name": "StatefulPartitionedCall/transpose_153/perm", "shape": [4], "dtype": "int32"}, {"name": "StatefulPartitionedCall/transpose_155/perm", "shape": [4], "dtype": "int32"}, {"name": "StatefulPartitionedCall/split_48", "shape": [1, 1, 64, 64], "dtype": "float32"}, {"name": "unknown_108", "shape": [64], "dtype": "float32"}, {"name": "StatefulPartitionedCall/transpose_156/perm", "shape": [4], "dtype": "int32"}, {"name": "StatefulPartitionedCall/Const_89", "shape": [4, 2], "dtype": "int32"}, {"name": "StatefulPartitionedCall/transpose_158/perm", "shape": [4], "dtype": "int32"}, {"name": "StatefulPartitionedCall/split_49", "shape": [3, 3, 64, 64], "dtype": "float32"}, {"name": "unknown_110", "shape": [64], "dtype": "float32"}, {"name": "StatefulPartitionedCall/transpose_159/perm", "shape": [4], "dtype": "int32"}, {"name": "StatefulPartitionedCall/transpose_161/perm", "shape": [4], "dtype": "int32"}, {"name": "StatefulPartitionedCall/split_50", "shape": [1, 1, 64, 64], "dtype": "float32"}, {"name": "StatefulPartitionedCall/transpose_162/perm", "shape": [4], "dtype": "int32"}, {"name": "StatefulPartitionedCall/transpose_149/perm", "shape": [4], "dtype": "int32"}, {"name": "StatefulPartitionedCall/Cast_19", "shape": [2], "dtype": "int32"}, {"name": "StatefulPartitionedCall/transpose_150/perm", "shape": [4], "dtype": "int32"}, {"name": "StatefulPartitionedCall/onnx_tf_prefix_Concat_193/axis", "shape": [], "dtype": "int32"}, {"name": "StatefulPartitionedCall/transpose_164/perm", "shape": [4], "dtype": "int32"}, {"name": "StatefulPartitionedCall/split_51", "shape": [1, 1, 256, 64], "dtype": "float32"}, {"name": "StatefulPartitionedCall/transpose_165/perm", "shape": [4], "dtype": "int32"}, {"name": "StatefulPartitionedCall/onnx_tf_prefix_Concat_205/axis", "shape": [], "dtype": "int32"}, {"name": "StatefulPartitionedCall/onnx_tf_prefix_BatchNormalization_206/mul", "shape": [1, 128, 1, 1], "dtype": "float32"}, {"name": "StatefulPartitionedCall/onnx_tf_prefix_BatchNormalization_206/sub", "shape": [1, 128, 1, 1], "dtype": "float32"}, {"name": "StatefulPartitionedCall/transpose_167/perm", "shape": [4], "dtype": "int32"}, {"name": "StatefulPartitionedCall/split_52", "shape": [1, 1, 128, 128], "dtype": "float32"}, {"name": "unknown_118", "shape": [128], "dtype": "float32"}, {"name": "StatefulPartitionedCall/transpose_168/perm", "shape": [4], "dtype": "int32"}, {"name": "StatefulPartitionedCall/Const_94", "shape": [4, 2], "dtype": "int32"}, {"name": "StatefulPartitionedCall/transpose_170/perm", "shape": [4], "dtype": "int32"}, {"name": "StatefulPartitionedCall/split_53", "shape": [3, 3, 128, 128], "dtype": "float32"}, {"name": "unknown_120", "shape": [128], "dtype": "float32"}, {"name": "StatefulPartitionedCall/transpose_171/perm", "shape": [4], "dtype": "int32"}, {"name": "StatefulPartitionedCall/transpose_129/perm", "shape": [4], "dtype": "int32"}, {"name": "StatefulPartitionedCall/split_40", "shape": [1, 1, 512, 128], "dtype": "float32"}, {"name": "unknown_89", "shape": [128], "dtype": "float32"}, {"name": "StatefulPartitionedCall/transpose_130/perm", "shape": [4], "dtype": "int32"}, {"name": "StatefulPartitionedCall/transpose_132/perm", "shape": [4], "dtype": "int32"}, {"name": "StatefulPartitionedCall/split_41", "shape": [1, 1, 128, 128], "dtype": "float32"}, {"name": "unknown_91", "shape": [128], "dtype": "float32"}, {"name": "StatefulPartitionedCall/transpose_133/perm", "shape": [4], "dtype": "int32"}, {"name": "StatefulPartitionedCall/Const_80", "shape": [4, 2], "dtype": "int32"}, {"name": "StatefulPartitionedCall/transpose_135/perm", "shape": [4], "dtype": "int32"}, {"name": "StatefulPartitionedCall/split_42", "shape": [3, 3, 128, 128], "dtype": "float32"}, {"name": "unknown_93", "shape": [128], "dtype": "float32"}, {"name": "StatefulPartitionedCall/transpose_136/perm", "shape": [4], "dtype": "int32"}, {"name": "StatefulPartitionedCall/transpose_138/perm", "shape": [4], "dtype": "int32"}, {"name": "StatefulPartitionedCall/split_43", "shape": [1, 1, 128, 128], "dtype": "float32"}, {"name": "StatefulPartitionedCall/transpose_139/perm", "shape": [4], "dtype": "int32"}, {"name": "StatefulPartitionedCall/transpose_126/perm", "shape": [4], "dtype": "int32"}, {"name": "StatefulPartitionedCall/Cast_17", "shape": [2], "dtype": "int32"}, {"name": "StatefulPartitionedCall/transpose_127/perm", "shape": [4], "dtype": "int32"}, {"name": "StatefulPartitionedCall/onnx_tf_prefix_Concat_170/axis", "shape": [], "dtype": "int32"}, {"name": "StatefulPartitionedCall/transpose_141/perm", "shape": [4], "dtype": "int32"}, {"name": "StatefulPartitionedCall/split_44", "shape": [1, 1, 512, 128], "dtype": "float32"}, {"name": "StatefulPartitionedCall/transpose_142/perm", "shape": [4], "dtype": "int32"}, {"name": "StatefulPartitionedCall/onnx_tf_prefix_Concat_182/axis", "shape": [], "dtype": "int32"}, {"name": "StatefulPartitionedCall/onnx_tf_prefix_BatchNormalization_183/mul", "shape": [1, 256, 1, 1], "dtype": "float32"}, {"name": "StatefulPartitionedCall/onnx_tf_prefix_BatchNormalization_183/sub", "shape": [1, 256, 1, 1], "dtype": "float32"}, {"name": "StatefulPartitionedCall/transpose_144/perm", "shape": [4], "dtype": "int32"}, {"name": "StatefulPartitionedCall/split_45", "shape": [1, 1, 256, 256], "dtype": "float32"}, {"name": "unknown_101", "shape": [256], "dtype": "float32"}, {"name": "StatefulPartitionedCall/transpose_145/perm", "shape": [4], "dtype": "int32"}, {"name": "StatefulPartitionedCall/transpose_147/perm", "shape": [4], "dtype": "int32"}, {"name": "StatefulPartitionedCall/split_46", "shape": [1, 1, 256, 128], "dtype": "float32"}, {"name": "unknown_103", "shape": [128], "dtype": "float32"}, {"name": "StatefulPartitionedCall/transpose_148/perm", "shape": [4], "dtype": "int32"}, {"name": "StatefulPartitionedCall/onnx_tf_prefix_Concat_214/axis", "shape": [], "dtype": "int32"}, {"name": "StatefulPartitionedCall/transpose_185/perm", "shape": [4], "dtype": "int32"}, {"name": "StatefulPartitionedCall/split_58", "shape": [1, 1, 256, 128], "dtype": "float32"}, {"name": "StatefulPartitionedCall/transpose_186/perm", "shape": [4], "dtype": "int32"}, {"name": "StatefulPartitionedCall/onnx_tf_prefix_Concat_226/axis", "shape": [], "dtype": "int32"}, {"name": "StatefulPartitionedCall/onnx_tf_prefix_BatchNormalization_227/mul", "shape": [1, 256, 1, 1], "dtype": "float32"}, {"name": "StatefulPartitionedCall/onnx_tf_prefix_BatchNormalization_227/sub", "shape": [1, 256, 1, 1], "dtype": "float32"}, {"name": "StatefulPartitionedCall/transpose_188/perm", "shape": [4], "dtype": "int32"}, {"name": "StatefulPartitionedCall/split_59", "shape": [1, 1, 256, 256], "dtype": "float32"}, {"name": "unknown_134", "shape": [256], "dtype": "float32"}, {"name": "StatefulPartitionedCall/transpose_189/perm", "shape": [4], "dtype": "int32"}, {"name": "StatefulPartitionedCall/Const_103", "shape": [4, 2], "dtype": "int32"}, {"name": "StatefulPartitionedCall/transpose_191/perm", "shape": [4], "dtype": "int32"}, {"name": "StatefulPartitionedCall/split_60", "shape": [3, 3, 256, 256], "dtype": "float32"}, {"name": "unknown_136", "shape": [256], "dtype": "float32"}, {"name": "StatefulPartitionedCall/transpose_192/perm", "shape": [4], "dtype": "int32"}, {"name": "StatefulPartitionedCall/transpose_106/perm", "shape": [4], "dtype": "int32"}, {"name": "StatefulPartitionedCall/split_33", "shape": [1, 1, 512, 256], "dtype": "float32"}, {"name": "unknown_72", "shape": [256], "dtype": "float32"}, {"name": "StatefulPartitionedCall/transpose_107/perm", "shape": [4], "dtype": "int32"}, {"name": "StatefulPartitionedCall/transpose_109/perm", "shape": [4], "dtype": "int32"}, {"name": "StatefulPartitionedCall/split_34", "shape": [1, 1, 256, 256], "dtype": "float32"}, {"name": "unknown_74", "shape": [256], "dtype": "float32"}, {"name": "StatefulPartitionedCall/transpose_110/perm", "shape": [4], "dtype": "int32"}, {"name": "StatefulPartitionedCall/Const_71", "shape": [4, 2], "dtype": "int32"}, {"name": "StatefulPartitionedCall/transpose_112/perm", "shape": [4], "dtype": "int32"}, {"name": "StatefulPartitionedCall/split_35", "shape": [3, 3, 256, 256], "dtype": "float32"}, {"name": "unknown_76", "shape": [256], "dtype": "float32"}, {"name": "StatefulPartitionedCall/transpose_113/perm", "shape": [4], "dtype": "int32"}, {"name": "StatefulPartitionedCall/transpose_115/perm", "shape": [4], "dtype": "int32"}, {"name": "StatefulPartitionedCall/split_36", "shape": [1, 1, 256, 256], "dtype": "float32"}, {"name": "StatefulPartitionedCall/transpose_116/perm", "shape": [4], "dtype": "int32"}, {"name": "StatefulPartitionedCall/transpose_96/perm", "shape": [4], "dtype": "int32"}, {"name": "StatefulPartitionedCall/transpose_97/perm", "shape": [4], "dtype": "int32"}, {"name": "StatefulPartitionedCall/transpose_98/perm", "shape": [4], "dtype": "int32"}, {"name": "StatefulPartitionedCall/transpose_99/perm", "shape": [4], "dtype": "int32"}, {"name": "StatefulPartitionedCall/transpose_61/perm", "shape": [4], "dtype": "int32"}, {"name": "StatefulPartitionedCall/split_20", "shape": [1, 1, 256, 128], "dtype": "float32"}, {"name": "unknown_44", "shape": [128], "dtype": "float32"}, {"name": "StatefulPartitionedCall/transpose_62/perm", "shape": [4], "dtype": "int32"}, {"name": "StatefulPartitionedCall/transpose_64/perm", "shape": [4], "dtype": "int32"}, {"name": "StatefulPartitionedCall/split_21", "shape": [1, 1, 128, 128], "dtype": "float32"}, {"name": "unknown_46", "shape": [128], "dtype": "float32"}, {"name": "StatefulPartitionedCall/transpose_65/perm", "shape": [4], "dtype": "int32"}, {"name": "StatefulPartitionedCall/Const_54", "shape": [4, 2], "dtype": "int32"}, {"name": "StatefulPartitionedCall/transpose_67/perm", "shape": [4], "dtype": "int32"}, {"name": "StatefulPartitionedCall/split_22", "shape": [3, 3, 128, 128], "dtype": "float32"}, {"name": "unknown_48", "shape": [128], "dtype": "float32"}, {"name": "StatefulPartitionedCall/transpose_68/perm", "shape": [4], "dtype": "int32"}, {"name": "StatefulPartitionedCall/transpose_70/perm", "shape": [4], "dtype": "int32"}, {"name": "StatefulPartitionedCall/split_23", "shape": [1, 1, 128, 128], "dtype": "float32"}, {"name": "unknown_50", "shape": [128], "dtype": "float32"}, {"name": "StatefulPartitionedCall/transpose_71/perm", "shape": [4], "dtype": "int32"}, {"name": "StatefulPartitionedCall/Const_57", "shape": [4, 2], "dtype": "int32"}, {"name": "StatefulPartitionedCall/transpose_73/perm", "shape": [4], "dtype": "int32"}, {"name": "StatefulPartitionedCall/split_24", "shape": [3, 3, 128, 128], "dtype": "float32"}, {"name": "unknown_52", "shape": [128], "dtype": "float32"}, {"name": "StatefulPartitionedCall/transpose_74/perm", "shape": [4], "dtype": "int32"}, {"name": "StatefulPartitionedCall/transpose_76/perm", "shape": [4], "dtype": "int32"}, {"name": "StatefulPartitionedCall/split_25", "shape": [1, 1, 128, 128], "dtype": "float32"}, {"name": "unknown_54", "shape": [128], "dtype": "float32"}, {"name": "StatefulPartitionedCall/transpose_77/perm", "shape": [4], "dtype": "int32"}, {"name": "StatefulPartitionedCall/Const_60", "shape": [4, 2], "dtype": "int32"}, {"name": "StatefulPartitionedCall/transpose_79/perm", "shape": [4], "dtype": "int32"}, {"name": "StatefulPartitionedCall/split_26", "shape": [3, 3, 128, 128], "dtype": "float32"}, {"name": "unknown_56", "shape": [128], "dtype": "float32"}, {"name": "StatefulPartitionedCall/transpose_80/perm", "shape": [4], "dtype": "int32"}, {"name": "StatefulPartitionedCall/transpose_82/perm", "shape": [4], "dtype": "int32"}, {"name": "StatefulPartitionedCall/split_27", "shape": [1, 1, 128, 128], "dtype": "float32"}, {"name": "StatefulPartitionedCall/transpose_83/perm", "shape": [4], "dtype": "int32"}, {"name": "StatefulPartitionedCall/transpose_28/perm", "shape": [4], "dtype": "int32"}, {"name": "StatefulPartitionedCall/split_9", "shape": [1, 1, 128, 64], "dtype": "float32"}, {"name": "unknown_20", "shape": [64], "dtype": "float32"}, {"name": "StatefulPartitionedCall/transpose_29/perm", "shape": [4], "dtype": "int32"}, {"name": "StatefulPartitionedCall/transpose_31/perm", "shape": [4], "dtype": "int32"}, {"name": "StatefulPartitionedCall/split_10", "shape": [1, 1, 64, 64], "dtype": "float32"}, {"name": "unknown_22", "shape": [64], "dtype": "float32"}, {"name": "StatefulPartitionedCall/transpose_32/perm", "shape": [4], "dtype": "int32"}, {"name": "StatefulPartitionedCall/Const_39", "shape": [4, 2], "dtype": "int32"}, {"name": "StatefulPartitionedCall/transpose_34/perm", "shape": [4], "dtype": "int32"}, {"name": "StatefulPartitionedCall/split_11", "shape": [3, 3, 64, 64], "dtype": "float32"}, {"name": "unknown_24", "shape": [64], "dtype": "float32"}, {"name": "StatefulPartitionedCall/transpose_35/perm", "shape": [4], "dtype": "int32"}, {"name": "StatefulPartitionedCall/transpose_37/perm", "shape": [4], "dtype": "int32"}, {"name": "StatefulPartitionedCall/split_12", "shape": [1, 1, 64, 64], "dtype": "float32"}, {"name": "unknown_26", "shape": [64], "dtype": "float32"}, {"name": "StatefulPartitionedCall/transpose_38/perm", "shape": [4], "dtype": "int32"}, {"name": "StatefulPartitionedCall/Const_42", "shape": [4, 2], "dtype": "int32"}, {"name": "StatefulPartitionedCall/transpose_40/perm", "shape": [4], "dtype": "int32"}, {"name": "StatefulPartitionedCall/split_13", "shape": [3, 3, 64, 64], "dtype": "float32"}, {"name": "unknown_28", "shape": [64], "dtype": "float32"}, {"name": "StatefulPartitionedCall/transpose_41/perm", "shape": [4], "dtype": "int32"}, {"name": "StatefulPartitionedCall/transpose_43/perm", "shape": [4], "dtype": "int32"}, {"name": "StatefulPartitionedCall/split_14", "shape": [1, 1, 64, 64], "dtype": "float32"}, {"name": "unknown_30", "shape": [64], "dtype": "float32"}, {"name": "StatefulPartitionedCall/transpose_44/perm", "shape": [4], "dtype": "int32"}, {"name": "StatefulPartitionedCall/Const_45", "shape": [4, 2], "dtype": "int32"}, {"name": "StatefulPartitionedCall/transpose_46/perm", "shape": [4], "dtype": "int32"}, {"name": "StatefulPartitionedCall/split_15", "shape": [3, 3, 64, 64], "dtype": "float32"}, {"name": "unknown_32", "shape": [64], "dtype": "float32"}, {"name": "StatefulPartitionedCall/transpose_47/perm", "shape": [4], "dtype": "int32"}, {"name": "StatefulPartitionedCall/transpose_49/perm", "shape": [4], "dtype": "int32"}, {"name": "StatefulPartitionedCall/split_16", "shape": [1, 1, 64, 64], "dtype": "float32"}, {"name": "StatefulPartitionedCall/transpose_50/perm", "shape": [4], "dtype": "int32"}, {"name": "StatefulPartitionedCall/transpose_7/perm", "shape": [4], "dtype": "int32"}, {"name": "StatefulPartitionedCall/split_2", "shape": [1, 1, 64, 32], "dtype": "float32"}, {"name": "unknown_4", "shape": [32], "dtype": "float32"}, {"name": "StatefulPartitionedCall/transpose_8/perm", "shape": [4], "dtype": "int32"}, {"name": "StatefulPartitionedCall/transpose_10/perm", "shape": [4], "dtype": "int32"}, {"name": "StatefulPartitionedCall/split_3", "shape": [1, 1, 32, 32], "dtype": "float32"}, {"name": "unknown_6", "shape": [32], "dtype": "float32"}, {"name": "StatefulPartitionedCall/transpose_11/perm", "shape": [4], "dtype": "int32"}, {"name": "StatefulPartitionedCall/Const_30", "shape": [4, 2], "dtype": "int32"}, {"name": "StatefulPartitionedCall/transpose_13/perm", "shape": [4], "dtype": "int32"}, {"name": "StatefulPartitionedCall/split_4", "shape": [3, 3, 32, 32], "dtype": "float32"}, {"name": "unknown_8", "shape": [32], "dtype": "float32"}, {"name": "StatefulPartitionedCall/transpose_14/perm", "shape": [4], "dtype": "int32"}, {"name": "StatefulPartitionedCall/transpose_16/perm", "shape": [4], "dtype": "int32"}, {"name": "StatefulPartitionedCall/split_5", "shape": [1, 1, 32, 32], "dtype": "float32"}, {"name": "StatefulPartitionedCall/transpose_17/perm", "shape": [4], "dtype": "int32"}, {"name": "StatefulPartitionedCall/SelectV2_1", "shape": [1], "dtype": "int32"}, {"name": "StatefulPartitionedCall/zeros", "shape": [], "dtype": "int32"}, {"name": "StatefulPartitionedCall/Const_1", "shape": [], "dtype": "int32"}, {"name": "StatefulPartitionedCall/Shape", "shape": [4], "dtype": "int32"}, {"name": "StatefulPartitionedCall/SelectV2_2", "shape": [1], "dtype": "int32"}, {"name": "StatefulPartitionedCall/Const", "shape": [], "dtype": "int32"}, {"name": "StatefulPartitionedCall/ExpandDims", "shape": [1, 1], "dtype": "int32"}, {"name": "StatefulPartitionedCall/Cast_1", "shape": [1], "dtype": "int32"}, {"name": "StatefulPartitionedCall/onnx_tf_prefix_Constant_3", "shape": [1], "dtype": "int32"}, {"name": "StatefulPartitionedCall/Const_2", "shape": [], "dtype": "int32"}, {"name": "StatefulPartitionedCall/SelectV2_5", "shape": [1], "dtype": "int32"}, {"name": "StatefulPartitionedCall/zeros_1", "shape": [], "dtype": "int32"}, {"name": "StatefulPartitionedCall/Const_4", "shape": [], "dtype": "int32"}, {"name": "StatefulPartitionedCall/Shape_1", "shape": [4], "dtype": "int32"}, {"name": "StatefulPartitionedCall/SelectV2_6", "shape": [1], "dtype": "int32"}, {"name": "StatefulPartitionedCall/Const_3", "shape": [], "dtype": "int32"}, {"name": "StatefulPartitionedCall/ExpandDims_1", "shape": [1, 1], "dtype": "int32"}, {"name": "StatefulPartitionedCall/Cast_3", "shape": [1], "dtype": "int32"}, {"name": "StatefulPartitionedCall/onnx_tf_prefix_Constant_8", "shape": [1], "dtype": "int32"}, {"name": "StatefulPartitionedCall/Const_5", "shape": [], "dtype": "int32"}, {"name": "StatefulPartitionedCall/SelectV2_9", "shape": [1], "dtype": "int32"}, {"name": "StatefulPartitionedCall/zeros_2", "shape": [], "dtype": "int32"}, {"name": "StatefulPartitionedCall/Const_7", "shape": [], "dtype": "int32"}, {"name": "StatefulPartitionedCall/Shape_2", "shape": [4], "dtype": "int32"}, {"name": "StatefulPartitionedCall/SelectV2_10", "shape": [1], "dtype": "int32"}, {"name": "StatefulPartitionedCall/Const_6", "shape": [], "dtype": "int32"}, {"name": "StatefulPartitionedCall/ExpandDims_2", "shape": [1, 1], "dtype": "int32"}, {"name": "StatefulPartitionedCall/Cast_5", "shape": [1], "dtype": "int32"}, {"name": "StatefulPartitionedCall/onnx_tf_prefix_Constant_13", "shape": [1], "dtype": "int32"}, {"name": "StatefulPartitionedCall/Const_8", "shape": [], "dtype": "int32"}, {"name": "StatefulPartitionedCall/SelectV2_13", "shape": [1], "dtype": "int32"}, {"name": "StatefulPartitionedCall/zeros_3", "shape": [], "dtype": "int32"}, {"name": "StatefulPartitionedCall/Const_10", "shape": [], "dtype": "int32"}, {"name": "StatefulPartitionedCall/Shape_3", "shape": [4], "dtype": "int32"}, {"name": "StatefulPartitionedCall/SelectV2_14", "shape": [1], "dtype": "int32"}, {"name": "StatefulPartitionedCall/Const_9", "shape": [], "dtype": "int32"}, {"name": "StatefulPartitionedCall/ExpandDims_3", "shape": [1, 1], "dtype": "int32"}, {"name": "StatefulPartitionedCall/Cast_7", "shape": [1], "dtype": "int32"}, {"name": "StatefulPartitionedCall/onnx_tf_prefix_Constant_18", "shape": [1], "dtype": "int32"}, {"name": "StatefulPartitionedCall/Const_11", "shape": [], "dtype": "int32"}, {"name": "StatefulPartitionedCall/SelectV2_17", "shape": [1], "dtype": "int32"}, {"name": "StatefulPartitionedCall/zeros_4", "shape": [], "dtype": "int32"}, {"name": "StatefulPartitionedCall/Const_13", "shape": [], "dtype": "int32"}, {"name": "StatefulPartitionedCall/Shape_4", "shape": [4], "dtype": "int32"}, {"name": "StatefulPartitionedCall/SelectV2_18", "shape": [1], "dtype": "int32"}, {"name": "StatefulPartitionedCall/Const_12", "shape": [], "dtype": "int32"}, {"name": "StatefulPartitionedCall/ExpandDims_4", "shape": [1, 1], "dtype": "int32"}, {"name": "StatefulPartitionedCall/Cast_9", "shape": [1], "dtype": "int32"}, {"name": "StatefulPartitionedCall/onnx_tf_prefix_Constant_23", "shape": [1], "dtype": "int32"}, {"name": "StatefulPartitionedCall/Const_14", "shape": [], "dtype": "int32"}, {"name": "StatefulPartitionedCall/SelectV2_21", "shape": [1], "dtype": "int32"}, {"name": "StatefulPartitionedCall/zeros_5", "shape": [], "dtype": "int32"}, {"name": "StatefulPartitionedCall/Const_16", "shape": [], "dtype": "int32"}, {"name": "StatefulPartitionedCall/Shape_5", "shape": [4], "dtype": "int32"}, {"name": "StatefulPartitionedCall/SelectV2_22", "shape": [1], "dtype": "int32"}, {"name": "StatefulPartitionedCall/Const_15", "shape": [], "dtype": "int32"}, {"name": "StatefulPartitionedCall/ExpandDims_5", "shape": [1, 1], "dtype": "int32"}, {"name": "StatefulPartitionedCall/Cast_11", "shape": [1], "dtype": "int32"}, {"name": "StatefulPartitionedCall/onnx_tf_prefix_Constant_28", "shape": [1], "dtype": "int32"}, {"name": "StatefulPartitionedCall/Const_17", "shape": [], "dtype": "int32"}, {"name": "StatefulPartitionedCall/SelectV2_25", "shape": [1], "dtype": "int32"}, {"name": "StatefulPartitionedCall/zeros_6", "shape": [], "dtype": "int32"}, {"name": "StatefulPartitionedCall/Const_19", "shape": [], "dtype": "int32"}, {"name": "StatefulPartitionedCall/Shape_6", "shape": [4], "dtype": "int32"}, {"name": "StatefulPartitionedCall/SelectV2_26", "shape": [1], "dtype": "int32"}, {"name": "StatefulPartitionedCall/Const_18", "shape": [], "dtype": "int32"}, {"name": "StatefulPartitionedCall/ExpandDims_6", "shape": [1, 1], "dtype": "int32"}, {"name": "StatefulPartitionedCall/Cast_13", "shape": [1], "dtype": "int32"}, {"name": "StatefulPartitionedCall/onnx_tf_prefix_Constant_33", "shape": [1], "dtype": "int32"}, {"name": "StatefulPartitionedCall/Const_20", "shape": [], "dtype": "int32"}, {"name": "StatefulPartitionedCall/SelectV2_29", "shape": [1], "dtype": "int32"}, {"name": "StatefulPartitionedCall/zeros_7", "shape": [], "dtype": "int32"}, {"name": "StatefulPartitionedCall/Const_22", "shape": [], "dtype": "int32"}, {"name": "StatefulPartitionedCall/Shape_7", "shape": [4], "dtype": "int32"}, {"name": "StatefulPartitionedCall/SelectV2_30", "shape": [1], "dtype": "int32"}, {"name": "StatefulPartitionedCall/Const_21", "shape": [], "dtype": "int32"}, {"name": "StatefulPartitionedCall/ExpandDims_7", "shape": [1, 1], "dtype": "int32"}, {"name": "StatefulPartitionedCall/Cast_15", "shape": [1], "dtype": "int32"}, {"name": "StatefulPartitionedCall/onnx_tf_prefix_Constant_38", "shape": [1], "dtype": "int32"}, {"name": "StatefulPartitionedCall/Const_23", "shape": [], "dtype": "int32"}, {"name": "StatefulPartitionedCall/onnx_tf_prefix_Concat_40/axis", "shape": [], "dtype": "int32"}, {"name": "StatefulPartitionedCall/Const_24", "shape": [4, 2], "dtype": "int32"}, {"name": "StatefulPartitionedCall/transpose_1/perm", "shape": [4], "dtype": "int32"}, {"name": "StatefulPartitionedCall/split", "shape": [3, 3, 12, 32], "dtype": "float32"}, {"name": "unknown_0", "shape": [32], "dtype": "float32"}, {"name": "StatefulPartitionedCall/transpose_2/perm", "shape": [4], "dtype": "int32"}, {"name": "StatefulPartitionedCall/Const_26", "shape": [4, 2], "dtype": "int32"}, {"name": "StatefulPartitionedCall/transpose_4/perm", "shape": [4], "dtype": "int32"}, {"name": "StatefulPartitionedCall/split_1", "shape": [3, 3, 32, 64], "dtype": "float32"}, {"name": "unknown_2", "shape": [64], "dtype": "float32"}, {"name": "StatefulPartitionedCall/transpose_5/perm", "shape": [4], "dtype": "int32"}, {"name": "StatefulPartitionedCall/transpose_19/perm", "shape": [4], "dtype": "int32"}, {"name": "StatefulPartitionedCall/split_6", "shape": [1, 1, 64, 32], "dtype": "float32"}, {"name": "StatefulPartitionedCall/transpose_20/perm", "shape": [4], "dtype": "int32"}, {"name": "StatefulPartitionedCall/onnx_tf_prefix_Concat_59/axis", "shape": [], "dtype": "int32"}, {"name": "StatefulPartitionedCall/onnx_tf_prefix_BatchNormalization_60/mul", "shape": [1, 64, 1, 1], "dtype": "float32"}, {"name": "StatefulPartitionedCall/onnx_tf_prefix_BatchNormalization_60/sub", "shape": [1, 64, 1, 1], "dtype": "float32"}, {"name": "StatefulPartitionedCall/transpose_22/perm", "shape": [4], "dtype": "int32"}, {"name": "StatefulPartitionedCall/split_7", "shape": [1, 1, 64, 64], "dtype": "float32"}, {"name": "unknown_16", "shape": [64], "dtype": "float32"}, {"name": "StatefulPartitionedCall/transpose_23/perm", "shape": [4], "dtype": "int32"}, {"name": "StatefulPartitionedCall/Const_35", "shape": [4, 2], "dtype": "int32"}, {"name": "StatefulPartitionedCall/transpose_25/perm", "shape": [4], "dtype": "int32"}, {"name": "StatefulPartitionedCall/split_8", "shape": [3, 3, 64, 128], "dtype": "float32"}, {"name": "unknown_18", "shape": [128], "dtype": "float32"}, {"name": "StatefulPartitionedCall/transpose_26/perm", "shape": [4], "dtype": "int32"}, {"name": "StatefulPartitionedCall/transpose_52/perm", "shape": [4], "dtype": "int32"}, {"name": "StatefulPartitionedCall/split_17", "shape": [1, 1, 128, 64], "dtype": "float32"}, {"name": "StatefulPartitionedCall/transpose_53/perm", "shape": [4], "dtype": "int32"}, {"name": "StatefulPartitionedCall/onnx_tf_prefix_Concat_94/axis", "shape": [], "dtype": "int32"}, {"name": "StatefulPartitionedCall/onnx_tf_prefix_BatchNormalization_95/mul", "shape": [1, 128, 1, 1], "dtype": "float32"}, {"name": "StatefulPartitionedCall/onnx_tf_prefix_BatchNormalization_95/sub", "shape": [1, 128, 1, 1], "dtype": "float32"}, {"name": "StatefulPartitionedCall/transpose_55/perm", "shape": [4], "dtype": "int32"}, {"name": "StatefulPartitionedCall/split_18", "shape": [1, 1, 128, 128], "dtype": "float32"}, {"name": "unknown_40", "shape": [128], "dtype": "float32"}, {"name": "StatefulPartitionedCall/transpose_56/perm", "shape": [4], "dtype": "int32"}, {"name": "StatefulPartitionedCall/Const_50", "shape": [4, 2], "dtype": "int32"}, {"name": "StatefulPartitionedCall/transpose_58/perm", "shape": [4], "dtype": "int32"}, {"name": "StatefulPartitionedCall/split_19", "shape": [3, 3, 128, 256], "dtype": "float32"}, {"name": "unknown_42", "shape": [256], "dtype": "float32"}, {"name": "StatefulPartitionedCall/transpose_59/perm", "shape": [4], "dtype": "int32"}, {"name": "StatefulPartitionedCall/transpose_85/perm", "shape": [4], "dtype": "int32"}, {"name": "StatefulPartitionedCall/split_28", "shape": [1, 1, 256, 128], "dtype": "float32"}, {"name": "StatefulPartitionedCall/transpose_86/perm", "shape": [4], "dtype": "int32"}, {"name": "StatefulPartitionedCall/onnx_tf_prefix_Concat_129/axis", "shape": [], "dtype": "int32"}, {"name": "StatefulPartitionedCall/onnx_tf_prefix_BatchNormalization_130/mul", "shape": [1, 256, 1, 1], "dtype": "float32"}, {"name": "StatefulPartitionedCall/onnx_tf_prefix_BatchNormalization_130/sub", "shape": [1, 256, 1, 1], "dtype": "float32"}, {"name": "StatefulPartitionedCall/transpose_88/perm", "shape": [4], "dtype": "int32"}, {"name": "StatefulPartitionedCall/split_29", "shape": [1, 1, 256, 256], "dtype": "float32"}, {"name": "unknown_64", "shape": [256], "dtype": "float32"}, {"name": "StatefulPartitionedCall/transpose_89/perm", "shape": [4], "dtype": "int32"}, {"name": "StatefulPartitionedCall/Const_65", "shape": [4, 2], "dtype": "int32"}, {"name": "StatefulPartitionedCall/transpose_91/perm", "shape": [4], "dtype": "int32"}, {"name": "StatefulPartitionedCall/split_30", "shape": [3, 3, 256, 512], "dtype": "float32"}, {"name": "unknown_66", "shape": [512], "dtype": "float32"}, {"name": "StatefulPartitionedCall/transpose_92/perm", "shape": [4], "dtype": "int32"}, {"name": "StatefulPartitionedCall/transpose_94/perm", "shape": [4], "dtype": "int32"}, {"name": "StatefulPartitionedCall/split_31", "shape": [1, 1, 512, 256], "dtype": "float32"}, {"name": "unknown_68", "shape": [256], "dtype": "float32"}, {"name": "StatefulPartitionedCall/transpose_95/perm", "shape": [4], "dtype": "int32"}, {"name": "StatefulPartitionedCall/transpose_100/perm", "shape": [4], "dtype": "int32"}, {"name": "StatefulPartitionedCall/transpose_101/perm", "shape": [4], "dtype": "int32"}, {"name": "StatefulPartitionedCall/onnx_tf_prefix_Concat_144/axis", "shape": [], "dtype": "int32"}, {"name": "StatefulPartitionedCall/transpose_103/perm", "shape": [4], "dtype": "int32"}, {"name": "StatefulPartitionedCall/split_32", "shape": [1, 1, 1024, 512], "dtype": "float32"}, {"name": "unknown_70", "shape": [512], "dtype": "float32"}, {"name": "StatefulPartitionedCall/transpose_104/perm", "shape": [4], "dtype": "int32"}, {"name": "StatefulPartitionedCall/transpose_118/perm", "shape": [4], "dtype": "int32"}, {"name": "StatefulPartitionedCall/split_37", "shape": [1, 1, 512, 256], "dtype": "float32"}, {"name": "StatefulPartitionedCall/transpose_119/perm", "shape": [4], "dtype": "int32"}, {"name": "StatefulPartitionedCall/onnx_tf_prefix_Concat_159/axis", "shape": [], "dtype": "int32"}, {"name": "StatefulPartitionedCall/onnx_tf_prefix_BatchNormalization_160/mul", "shape": [1, 512, 1, 1], "dtype": "float32"}, {"name": "StatefulPartitionedCall/onnx_tf_prefix_BatchNormalization_160/sub", "shape": [1, 512, 1, 1], "dtype": "float32"}, {"name": "StatefulPartitionedCall/transpose_121/perm", "shape": [4], "dtype": "int32"}, {"name": "StatefulPartitionedCall/split_38", "shape": [1, 1, 512, 512], "dtype": "float32"}, {"name": "unknown_84", "shape": [512], "dtype": "float32"}, {"name": "StatefulPartitionedCall/transpose_122/perm", "shape": [4], "dtype": "int32"}, {"name": "StatefulPartitionedCall/transpose_124/perm", "shape": [4], "dtype": "int32"}, {"name": "StatefulPartitionedCall/split_39", "shape": [1, 1, 512, 256], "dtype": "float32"}, {"name": "unknown_86", "shape": [256], "dtype": "float32"}, {"name": "StatefulPartitionedCall/transpose_125/perm", "shape": [4], "dtype": "int32"}, {"name": "StatefulPartitionedCall/onnx_tf_prefix_Concat_235/axis", "shape": [], "dtype": "int32"}, {"name": "StatefulPartitionedCall/transpose_206/perm", "shape": [4], "dtype": "int32"}, {"name": "StatefulPartitionedCall/split_65", "shape": [1, 1, 512, 256], "dtype": "float32"}, {"name": "StatefulPartitionedCall/transpose_207/perm", "shape": [4], "dtype": "int32"}, {"name": "StatefulPartitionedCall/onnx_tf_prefix_Concat_247/axis", "shape": [], "dtype": "int32"}, {"name": "StatefulPartitionedCall/onnx_tf_prefix_BatchNormalization_248/mul", "shape": [1, 512, 1, 1], "dtype": "float32"}, {"name": "StatefulPartitionedCall/onnx_tf_prefix_BatchNormalization_248/sub", "shape": [1, 512, 1, 1], "dtype": "float32"}, {"name": "StatefulPartitionedCall/transpose_209/perm", "shape": [4], "dtype": "int32"}, {"name": "StatefulPartitionedCall/split_66", "shape": [1, 1, 512, 512], "dtype": "float32"}, {"name": "unknown_150", "shape": [512], "dtype": "float32"}, {"name": "StatefulPartitionedCall/transpose_210/perm", "shape": [4], "dtype": "int32"}, {"name": "StatefulPartitionedCall/transpose_218/perm", "shape": [4], "dtype": "int32"}, {"name": "StatefulPartitionedCall/split_69", "shape": [1, 1, 512, 54], "dtype": "float32"}, {"name": "unknown_166", "shape": [54], "dtype": "float32"}, {"name": "StatefulPartitionedCall/transpose_219/perm", "shape": [4], "dtype": "int32"}, {"name": "StatefulPartitionedCall/Cast_54", "shape": [1], "dtype": "int32"}, {"name": "StatefulPartitionedCall/zeros_18", "shape": [], "dtype": "int32"}, {"name": "StatefulPartitionedCall/onnx_tf_prefix_Transpose_366/perm", "shape": [5], "dtype": "int32"}, {"name": "StatefulPartitionedCall/SelectV2_65", "shape": [1], "dtype": "int32"}, {"name": "StatefulPartitionedCall/zeros_21", "shape": [], "dtype": "int32"}, {"name": "StatefulPartitionedCall/Const_145", "shape": [], "dtype": "int32"}, {"name": "StatefulPartitionedCall/Shape_26", "shape": [5], "dtype": "int32"}, {"name": "StatefulPartitionedCall/SelectV2_66", "shape": [1], "dtype": "int32"}, {"name": "StatefulPartitionedCall/Const_144", "shape": [], "dtype": "int32"}, {"name": "StatefulPartitionedCall/ExpandDims_16", "shape": [1, 1], "dtype": "int32"}, {"name": "StatefulPartitionedCall/Cast_60", "shape": [1], "dtype": "int32"}, {"name": "StatefulPartitionedCall/onnx_tf_prefix_Constant_394", "shape": [1], "dtype": "int32"}, {"name": "StatefulPartitionedCall/Const_146", "shape": [], "dtype": "int32"}, {"name": "StatefulPartitionedCall/onnx_tf_prefix_Concat_396/axis", "shape": [], "dtype": "int32"}, {"name": "StatefulPartitionedCall/Cast_61", "shape": [1], "dtype": "int32"}, {"name": "StatefulPartitionedCall/zeros_22", "shape": [], "dtype": "int32"}, {"name": "StatefulPartitionedCall/onnx_tf_prefix_Concat_400/axis", "shape": [], "dtype": "int32"}, {"name": "StatefulPartitionedCall/LogicalAnd_8", "shape": [], "dtype": "bool"}, {"name": "StatefulPartitionedCall/assert_equal_17/y", "shape": [], "dtype": "bool"}, {"name": "StatefulPartitionedCall/assert_equal_17/All", "shape": [], "dtype": "bool"}, {"name": "StatefulPartitionedCall/LogicalAnd_7", "shape": [], "dtype": "bool"}, {"name": "StatefulPartitionedCall/assert_equal_15/y", "shape": [], "dtype": "bool"}, {"name": "StatefulPartitionedCall/assert_equal_15/All", "shape": [], "dtype": "bool"}, {"name": "StatefulPartitionedCall/LogicalAnd_6", "shape": [], "dtype": "bool"}, {"name": "StatefulPartitionedCall/assert_equal_13/y", "shape": [], "dtype": "bool"}, {"name": "StatefulPartitionedCall/assert_equal_13/All", "shape": [], "dtype": "bool"}, {"name": "StatefulPartitionedCall/LogicalAnd_5", "shape": [], "dtype": "bool"}, {"name": "StatefulPartitionedCall/assert_equal_11/y", "shape": [], "dtype": "bool"}, {"name": "StatefulPartitionedCall/assert_equal_11/All", "shape": [], "dtype": "bool"}, {"name": "StatefulPartitionedCall/LogicalAnd_4", "shape": [], "dtype": "bool"}, {"name": "StatefulPartitionedCall/assert_equal_9/y", "shape": [], "dtype": "bool"}, {"name": "StatefulPartitionedCall/assert_equal_9/All", "shape": [], "dtype": "bool"}, {"name": "StatefulPartitionedCall/LogicalAnd_3", "shape": [], "dtype": "bool"}, {"name": "StatefulPartitionedCall/assert_equal_7/y", "shape": [], "dtype": "bool"}, {"name": "StatefulPartitionedCall/assert_equal_7/All", "shape": [], "dtype": "bool"}, {"name": "StatefulPartitionedCall/LogicalAnd_2", "shape": [], "dtype": "bool"}, {"name": "StatefulPartitionedCall/assert_equal_5/y", "shape": [], "dtype": "bool"}, {"name": "StatefulPartitionedCall/assert_equal_5/All", "shape": [], "dtype": "bool"}, {"name": "StatefulPartitionedCall/LogicalAnd_1", "shape": [], "dtype": "bool"}, {"name": "StatefulPartitionedCall/assert_equal_3/y", "shape": [], "dtype": "bool"}, {"name": "StatefulPartitionedCall/assert_equal_3/All", "shape": [], "dtype": "bool"}, {"name": "StatefulPartitionedCall/assert_equal_1/Assert/AssertGuard/pivot_t/_183", "shape": [], "dtype": "bool"}, {"name": "StatefulPartitionedCall/LogicalAnd", "shape": [], "dtype": "bool"}, {"name": "StatefulPartitionedCall/assert_equal_1/y", "shape": [], "dtype": "bool"}, {"name": "StatefulPartitionedCall/assert_equal_1/All", "shape": [], "dtype": "bool"}, {"name": "StatefulPartitionedCall/assert_equal_3/Assert/AssertGuard/pivot_t/_193", "shape": [], "dtype": "bool"}, {"name": "StatefulPartitionedCall/onnx_tf_prefix_Concat_300", "shape": [3], "dtype": "int32"}, {"name": "StatefulPartitionedCall/Where_1", "shape": [0, 1], "dtype": "int32"}, {"name": "StatefulPartitionedCall/GatherV2_1", "shape": [0], "dtype": "int32"}, {"name": "Func/StatefulPartitionedCall/assert_equal_3/Assert/AssertGuard/then/_189/output/_285", "shape": [], "dtype": "bool"}, {"name": "StatefulPartitionedCall/assert_equal_5/Assert/AssertGuard/pivot_t/_203", "shape": [], "dtype": "bool"}, {"name": "Func/StatefulPartitionedCall/assert_equal_5/Assert/AssertGuard/then/_199/output/_297", "shape": [], "dtype": "bool"}, {"name": "StatefulPartitionedCall/assert_equal_7/Assert/AssertGuard/pivot_t/_213", "shape": [], "dtype": "bool"}, {"name": "StatefulPartitionedCall/onnx_tf_prefix_Concat_266", "shape": [5], "dtype": "int32"}, {"name": "StatefulPartitionedCall/Where", "shape": [0, 1], "dtype": "int32"}, {"name": "StatefulPartitionedCall/GatherV2", "shape": [0], "dtype": "int32"}, {"name": "Func/StatefulPartitionedCall/assert_equal_7/Assert/AssertGuard/then/_209/output/_309", "shape": [], "dtype": "bool"}, {"name": "StatefulPartitionedCall/assert_equal_9/Assert/AssertGuard/pivot_t/_223", "shape": [], "dtype": "bool"}, {"name": "StatefulPartitionedCall/onnx_tf_prefix_Concat_349", "shape": [3], "dtype": "int32"}, {"name": "StatefulPartitionedCall/Where_3", "shape": [0, 1], "dtype": "int32"}, {"name": "StatefulPartitionedCall/GatherV2_3", "shape": [0], "dtype": "int32"}, {"name": "Func/StatefulPartitionedCall/assert_equal_9/Assert/AssertGuard/then/_219/output/_321", "shape": [], "dtype": "bool"}, {"name": "StatefulPartitionedCall/assert_equal_11/Assert/AssertGuard/pivot_t/_233", "shape": [], "dtype": "bool"}, {"name": "Func/StatefulPartitionedCall/assert_equal_11/Assert/AssertGuard/then/_229/output/_333", "shape": [], "dtype": "bool"}, {"name": "StatefulPartitionedCall/assert_equal_13/Assert/AssertGuard/pivot_t/_243", "shape": [], "dtype": "bool"}, {"name": "StatefulPartitionedCall/onnx_tf_prefix_Concat_315", "shape": [5], "dtype": "int32"}, {"name": "StatefulPartitionedCall/Where_2", "shape": [0, 1], "dtype": "int32"}, {"name": "StatefulPartitionedCall/GatherV2_2", "shape": [0], "dtype": "int32"}, {"name": "Func/StatefulPartitionedCall/assert_equal_13/Assert/AssertGuard/then/_239/output/_345", "shape": [], "dtype": "bool"}, {"name": "StatefulPartitionedCall/assert_equal_15/Assert/AssertGuard/pivot_t/_253", "shape": [], "dtype": "bool"}, {"name": "StatefulPartitionedCall/onnx_tf_prefix_Concat_398", "shape": [3], "dtype": "int32"}, {"name": "StatefulPartitionedCall/Where_5", "shape": [0, 1], "dtype": "int32"}, {"name": "StatefulPartitionedCall/GatherV2_5", "shape": [0], "dtype": "int32"}, {"name": "Func/StatefulPartitionedCall/assert_equal_15/Assert/AssertGuard/then/_249/output/_357", "shape": [], "dtype": "bool"}, {"name": "StatefulPartitionedCall/assert_equal_17/Assert/AssertGuard/pivot_t/_263", "shape": [], "dtype": "bool"}, {"name": "Func/StatefulPartitionedCall/assert_equal_17/Assert/AssertGuard/then/_259/output/_369", "shape": [], "dtype": "bool"}, {"name": "StatefulPartitionedCall/onnx_tf_prefix_Concat_364", "shape": [5], "dtype": "int32"}, {"name": "StatefulPartitionedCall/Where_4", "shape": [0, 1], "dtype": "int32"}, {"name": "StatefulPartitionedCall/GatherV2_4", "shape": [0], "dtype": "int32"}]}]}